110016_100_iter_200_sims.pth (torch, 451023 bytes, 7 tensors)

fc1.weight f4 [128, 800]
000000 61 59 d7 3c ce 04 24 3b 50 6d 9b 3c dc 59 d3 3d
       0.026287736 0.0025027278 0.018973023 0.10319874
000010 ef 91 18 bd db a6 4b bc 0f 9f 81 3b 02 94 09 bc
       -0.037248548 -0.012429918 0.003955729 -0.008397104
000020 8b d6 8b 3c 5a 50 80 3a f8 b2 62 bc 4c 3a e2 bc
       0.017070075 0.0009789572 -0.013836615 -0.027615689
000030 9e 8a 15 bd c7 a2 ce 3d 4f e6 01 3d 59 3f ce bc
       -0.03650915 0.10089641 0.03171378 -0.02517669
000040 b0 54 31 bd f8 a1 9e 3c 9f 1b 0b 3d d3 9d b8 3c
       -0.043293655 0.019364342 0.03396189 0.022536194
000050 f5 b7 b4 3c 52 fc 9c bc b6 63 24 3d b9 53 d1 3d
       0.022060374 -0.019163284 0.040134154 0.10221047
000060 13 d5 d9 3c 41 db 57 3c 16 76 5c 3c 6a 62 2d bd
       0.02659086 0.013174833 0.013455888 -0.042330183
000070 37 4d e0 bb 12 22 ad bc 0c de da 3d ee c1 06 3d
       -0.006845142 -0.02113441 0.10686883 0.03289979
000080 99 15 5f bb 20 71 19 bd b4 31 85 ba ab cc 4f bb
       -0.0034039973 -0.0374614 -0.0010161907 -0.0031707685
000090 f7 0d a6 bc 43 b3 d0 bc 4e 15 34 bd 7c 9a 28 3d
       -0.02027033 -0.025476104 -0.04396563 0.041162953
0000a0 b8 83 76 bc 8b 22 2d b8 6b 2f 14 bd 20 8d 99 3d
       -0.015046053 -4.1278585e-05 -0.036178034 0.074976206
0000b0 cb e9 0f bd 78 a2 7d bc e8 71 11 bc c5 b4 5e 3c
       -0.03513507 -0.01548063 -0.008877255 0.0135929035
0000c0 8d bd c5 38 7b 92 87 ba 17 c6 c6 bc 15 0e 29 3d
       9.4289986e-05 -0.0010343337 -0.024264378 0.041273195
0000d0 a4 eb c2 3a 3c d2 9e 3c 10 5c da bc fe 93 92 3c
       0.0014871252 0.019387357 -0.026655227 0.017892834
0000e0 e7 96 c8 bb f8 82 0c 3a 43 1c 5f bc 59 01 e2 3d
       -0.0061215046 0.0005360092 -0.013617578 0.11035413
0000f0 9e 2d 60 bd 4d 9e 03 3d 7d 57 26 ba f2 6e a6 3c
       -0.054731004 0.03213339 -0.0006345434 0.020316575
000100 4b 66 85 3c 9f cc d2 bc 3d 41 66 3d 76 c2 ea bb
       0.016284129 -0.025732337 0.05621456 -0.007164295
000110 44 c9 c6 ba 64 07 05 bd 2a a3 b9 3d 50 b6 16 3c
       -0.0015166183 -0.03247775 0.09064324 0.00919874
000120 37 3b 68 3a b7 17 ce bc 64 c8 f9 3b 60 eb 87 bc
       0.00088589214 -0.025157792 0.0076227654 -0.016591728
000130 5f dc 3c bd 66 ef 42 3d 3f 3e 4b ba 3a 50 0f bd
       -0.0461086 0.04759159 -0.0007753111 -0.03498862
000140 7d ec b5 3b 2f f2 61 3c b1 48 a6 bc e0 6f 84 3d
       0.0055518732 0.013790651 -0.020298334 0.06466651
000150 d2 0a 04 3d a6 12 96 bc 1a 3d 35 3d 96 33 a8 3c
       0.03223688 -0.01831944 0.044247724 0.02053241
000160 8a 27 8f 3d 99 74 58 ba 22 15 44 3d b2 5c 26 3d
       0.06989963 -0.00082571205 0.047871716 0.040615745
000170 06 bf 0c 3b 2c c9 46 3d 44 b2 e4 3c 8a 97 46 bc
       0.0021476164 0.048531696 0.027917035 -0.012121091
000180 0d 6e 52 bc f8 51 01 bd 3a ab 5e 3d fa f1 1c 3d
       -0.012843621 -0.031572312 0.054362513 0.038316704
000190 22 4f 7a bc 56 ba 1d bd c8 43 97 3d b7 2d 9d 3d
       -0.015277656 -0.038507782 0.07385975 0.07674735
0001a0 9f c4 5f 3d f5 f1 7e 3d ea 3c cb 3b 64 3e 5c 3d
       0.05463087 0.062242467 0.00620233 0.053770438
0001b0 83 51 2f 3d c1 ba e6 bc 54 3a 4d 3d f4 e8 c4 3b
       0.042802345 -0.028165223 0.050104454 0.0060092155
0001c0 4d 6f 48 bd fa 76 02 3d a2 7a c3 3d a8 82 e7 bc
       -0.04893427 0.031851746 0.09544875 -0.028260544
0001d0 33 97 38 bd 7a bf 02 3d eb 8e 1e 3d 61 c0 88 bc
       -0.04506607 0.031920888 0.038710516 -0.016693296
0001e0 db d5 9d bc f5 f5 19 3d 86 8b 6a bc 4f a5 70 3d
       -0.019267013 0.03758808 -0.014315492 0.0587514
0001f0 3f bb 89 bb 4e d0 9a 3c ad cc 3e 3d b1 f2 3b 3b
       -0.0042032297 0.018898156 0.046581913 0.002867859
000200 d0 58 8d 3d c8 a5 b5 3c fb d9 2d 3d 13 c2 84 bb
       0.06901705 0.022173777 0.04244421 -0.0040514558
000210 31 c4 54 3c 75 ed 12 3d c3 78 25 3d 49 39 1f 3d
       0.012986229 0.035870988 0.04039837 0.03887299
000220 e0 1f 4f 3b 24 1c 92 3c 59 73 ab 3c c6 6e b8 3d
       0.0031604692 0.017835684 0.020929025 0.09005503
000230 e0 47 09 3c 43 fc bc 3c 01 2d dd 3a 8b 1e 43 bb
       0.008378953 0.023069507 0.0016874374 -0.0029772844
000240 4d 3e b9 bb 5d db 10 3d cb e2 45 3d 9d eb f8 3c
       -0.005653179 0.03536545 0.04831199 0.030385787
000250 03 6b 87 bc b0 9f ca 3c 16 2a e9 3d 99 b4 2f 3d
       -0.01653052 0.024734348 0.113849804 0.04289684
000260 27 44 33 3d 24 a6 3a 3d bc f6 17 3b 6c 7f fe 3c
       0.043766167 0.0455686 0.0023187837 0.031066619
000270 d5 ec 8d 3c 3b 22 08 bc 83 4d 30 3c db 81 ba 3c
       0.017324844 -0.008308942 0.010760668 0.022766998
000280 d1 6c 3d 3c a2 8b d4 3b 0f a0 b5 3b 6b cf 26 3d
       0.011561588 0.006486372 0.005542762 0.040725153
000290 c8 20 64 bc 1d 33 bc bc ba 98 1e 3d b5 65 0a 3d
       -0.013923831 -0.022973591 0.03871987 0.0337884
0002a0 c9 d0 89 3d a2 52 14 bd 9b d4 18 3d 9e 92 61 3d
       0.06729276 -0.036211617 0.03731213 0.055071466
0002b0 8c 42 3b 3c 13 59 fa bc c2 f5 1f 3d 03 65 e2 3c
       0.01142944 -0.030560052 0.039052732 0.027636057
0002c0 c0 5b 8b 3c 80 e3 19 3d 88 ca b1 bc 42 47 3f 3d
       0.017011523 0.037570477 -0.02170302 0.046698816
0002d0 60 1d 16 3d 5c 70 cd bc 1e 8d 52 3b 14 e2 c0 3c
       0.036649108 -0.025077991 0.003212757 0.023545302
0002e0 b6 93 10 3d 82 f8 03 3d 62 a9 68 bb bf c9 3b 3c
       0.035297118 0.032219417 -0.003550135 0.011461674
0002f0 61 15 18 bc 81 f5 78 3c d3 71 ec 3c 2c 81 6f 3c
       -0.009282441 0.015195251 0.02886287 0.014618199
000300 a6 88 83 bc 94 bf 40 3d e2 3e 72 3d a6 48 35 bd
       -0.01605637 0.047057703 0.059142 -0.044258736
000310 58 f0 ee 3c c4 41 39 3d 54 34 a3 bc 3e 0d 6d bb
       0.02916734 0.045228735 -0.019922413 -0.0036171223
000320 1b 0e ee bc 62 2c d3 ba aa d2 81 bc 05 8c 2e 3b
       -0.02905946 -0.001611125 -0.015847523 0.002663375
000330 ea ff ab 3c af a6 9d 3c a5 71 9e 3d cb 4f 2a bc
       0.020996053 0.01924452 0.0773652 -0.010395001
000340 11 46 86 3c 24 1e cf bc 9b 19 5a bb 28 2c 15 bc
       0.016390832 -0.025282927 -0.0033279422 -0.009104766
000350 dd d3 a1 bc 4d eb 25 3c e9 95 b1 3c c3 bf 19 3c
       -0.019754345 0.010126901 0.021677928 0.009384098
000360 1c 03 f3 3b 6d ad 37 3c 6c bf b6 3c 69 fc ce 3c
       0.007416142 0.0112107815 0.022308074 0.025266843
000370 1e 2b 22 3c ea ec 25 3d 39 25 a0 bb 0f 6a 45 3d
       0.009897975 0.040509142 -0.00488725 0.04819685
000380 19 c6 ad bb 38 8b 3e 3c ea a5 9c 3d 33 a6 01 3d
       -0.005303156 0.011629872 0.07648833 0.03165264
000390 db 4c 36 3d d3 0d 51 3c 1f 73 a1 3d 6e a1 03 3d
       0.04450689 0.012759644 0.07883286 0.032136373
0003a0 1f 20 40 3d c0 43 b2 bc 5e 10 c9 3c ff 1d 37 3d
       0.046905633 -0.021760821 0.024543937 0.04470634
0003b0 43 91 e4 3c 93 41 72 3c 93 f0 3e bc 7a 80 d4 3c
       0.027901297 0.014786142 -0.011654037 0.025940169
0003c0 d1 e4 04 3c eb 35 1e bc 76 fe c2 bc c2 46 62 3c
       0.008111195 -0.00965641 -0.023802977 0.013810815
0003d0 47 01 f4 3c 15 e4 d7 3b 2e 04 84 3d 00 5f ba bc
       0.029785765 0.006588469 0.0644611 -0.022750378
0003e0 71 04 05 3d d1 4e 8e 3c 72 d2 11 3d 0d 18 55 3d
       0.03247494 0.017371567 0.035601087 0.05202489
0003f0 b1 e9 f0 bc 34 1a c6 bc a0 ad 0b 3c d0 14 86 bc
       -0.029408308 -0.024182416 0.008525282 -0.016367346

fc1.bias f4 [128]
000000 49 c5 52 3d 9e 32 84 3d d1 4e 4f bc d3 4f 21 3c
       0.051457677 0.06454967 -0.012653069 0.009845692
000010 b3 55 c1 3c 61 bc 25 bd 39 d6 35 3d 39 87 66 3c
       0.023600435 -0.040462855 0.04439375 0.0140703255
000020 7c 95 c8 bc 1c 70 94 3c 29 50 93 3c b2 dd 32 3c
       -0.024485342 0.018119864 0.01798256 0.010917114
000030 62 61 e3 b8 e2 0b 9c 3c fa 13 1f 3d 1a e6 50 3d
       -0.000108423425 0.019048635 0.03883741 0.051000692
000040 2e 26 cf 3c 54 91 7d bc 76 98 dc 3c 1a e6 6f 3d
       0.02528676 -0.015476543 0.026928168 0.05856905
000050 02 62 f3 3c 20 17 00 3b aa 37 ec 3b c9 e0 3e bc
       0.02970982 0.0019545034 0.007208784 -0.011650273
000060 27 b2 fb 3c 43 fe 66 bc 34 fc 1b 3d d3 3c 3c 3d
       0.030724598 -0.014098707 0.038082317 0.045956444
000070 73 52 ed 3b c1 b4 47 3d 31 49 2f 3c d1 76 d2 3c
       0.0072424947 0.048756365 0.010698603 0.025691422
000080 0d 14 be 3c 9d 82 08 3d 44 a5 55 bb b0 7a f2 3b
       0.02320292 0.033327688 -0.0032599727 0.0073998794
000090 76 d3 0d 3d 4c 34 12 3c fb c6 96 bc eb b6 ea bb
       0.034625493 0.008923601 -0.018405428 -0.007162919
0000a0 e4 d4 ad 3b e9 0d 36 3d 4a 01 77 3d 54 54 e7 3c
       0.0053049196 0.04444686 0.060303964 0.028238453
0000b0 b8 4c 36 3d 6b 06 42 3d e0 0d 2e 3d 24 24 8e 3c
       0.04450676 0.047369402 0.0424937 0.017351218
0000c0 d7 3a 5b 3c 62 e6 21 3d 4a dd d7 3a 21 0a 65 3c
       0.013380728 0.03952635 0.0016469148 0.013979466
0000d0 cb 35 24 3d 70 1e 29 3c 8a 2f 62 3d 97 ac f5 bc
       0.040090363 0.010322198 0.055221118 -0.029989524
0000e0 96 27 14 bc 20 26 1a 3d ed 7b 66 3d a2 0c 08 bc
       -0.009042641 0.037634015 0.05627053 -0.008303793
0000f0 e3 a1 4d 3d 79 2d b8 bc bf eb 6d 3c e7 3d 22 3d
       0.050203215 -0.02248262 0.014521538 0.039609816
000100 b1 ea 61 3d 55 de 05 3d 98 aa 85 3d e2 43 6d 3b
       0.05515546 0.032682735 0.06526679 0.0036203791
000110 5e a3 88 bb 2d 30 88 bc f3 c0 82 bb 39 1d c9 3b
       -0.0041698655 -0.016624535 -0.0039902865 0.006137517
000120 da 02 7c 3d a5 73 6c 3d ff e1 0e bc 62 04 af bc
       0.061526157 0.057727475 -0.008720874 -0.021364395
000130 63 f0 a8 3b b8 39 1a bd a3 a3 82 3d cc 32 a1 3c
       0.0051556095 -0.0376527 0.063788675 0.019677542
000140 40 8f 89 3c db 94 52 3d 02 89 8d bb 82 02 bb 3c
       0.01679194 0.05141149 -0.004319311 0.022828344
000150 5e 50 a4 3c ad 6e fd 3c dc b8 c0 3c a9 92 7d 3b
       0.020057853 0.030936563 0.023525648 0.0038692153
000160 98 db 6a 3d c3 da 2f 3d f9 d1 d0 3c 22 02 f9 3c
       0.057338327 0.042933237 0.025490748 0.030396525
000170 23 de b6 bb 30 bd 43 3d 41 cc 6d 3d 73 a3 37 3d
       -0.00558068 0.047787845 0.05805612 0.04483361
000180 e8 ab 0e 3c 40 33 35 bb d4 17 60 bb 62 ad bf 3c
       0.008707978 -0.0027648956 -0.003419389 0.023398105
000190 c8 b8 51 3b 71 fd bc 3c ab 20 10 3c 70 40 33 bc
       0.0032001007 0.023070069 0.008796851 -0.010940656
0001a0 5d 4c a4 bb 1e 2f e6 3c cd 4f 42 3d 2a 3c 7a 3a
       -0.005013986 0.02809864 0.047439385 0.00095457083
0001b0 23 95 6c 3c b6 d8 5f 3c 12 dc 16 bd c0 1e 4b 3c
       0.014439854 0.013662508 -0.03683097 0.012397468
0001c0 d6 0f dd bc f3 0b 77 bb ca 8d 32 3d a8 f3 f9 3b
       -0.02698509 -0.0037696331 0.04359225 0.007627923
0001d0 3d 91 18 bc 90 ae 94 3c 91 15 07 3d 10 fd 4c 3c
       -0.009311971 0.018149644 0.03297955 0.012511507
0001e0 7f 5e f7 3c b1 06 db 3c 3e bb 54 3d 19 a2 d9 3c
       0.030196426 0.02673659 0.05193638 0.026566552
0001f0 df 82 07 3b 9a 23 f4 3b 05 cc 5f 3d 3d 6d ce bc
       0.002067737 0.007450533 0.054637928 -0.025198573

fc2.weight f4 [64, 128]
000000 e7 49 31 3c 8c 1e 86 bd d1 87 5b bc 2c 14 b4 bc
       0.010820842 -0.06548795 -0.01339908 -0.021982275
000010 cc 5b e3 bc c2 90 22 bd ef ea 08 3d 2c 5e aa bd
       -0.027753733 -0.039688833 0.033427175 -0.08318743
000020 d7 91 4b bd 0a 0a d4 3c fb ff 4d bd 23 45 3c bd
       -0.04969963 0.025883693 -0.05029295 -0.04596437
000030 27 19 f4 bc 14 d1 0f bd 99 24 0b 3d fd 45 f9 bc
       -0.02979715 -0.0351115 0.03397045 -0.03042888
000040 f8 ca 03 bd 04 37 21 bd 1b 40 a8 3d 8e 0d 9b 3d
       -0.032175988 -0.039359108 0.08215352 0.07570945
000050 f1 98 0c bc d0 3a 98 3d 96 6d 19 3c 50 e2 dc 3d
       -0.008581386 0.074330926 0.009364506 0.10785353
000060 29 1a d5 3d a6 91 e5 3d c4 87 c1 39 e2 19 0f bd
       0.1040538 0.11209421 0.00036912982 -0.034936793
000070 95 43 0f 3d 68 2f e7 3d 9e e2 8d bc e2 fa f4 3c
       0.03497656 0.11288339 -0.017319974 0.029904786
000080 ce 8e 39 3d f1 38 6a 3c 77 2b bb 3d 58 78 a2 3d
       0.045302205 0.014295802 0.0913915 0.0793311
000090 5e dc d4 3c f1 d3 94 3d 09 48 ec 3c fa 85 6a 3d
       0.025983986 0.07266987 0.028842943 0.057256676
0000a0 2b 11 33 3d be 19 2c 3b b5 8e 99 3d fd 2c 54 bd
       0.043717545 0.002626046 0.07497922 -0.051800717
0000b0 ca c6 52 3d ca 06 5c 3d 47 54 bb 3d 93 0a 7d 3d
       0.05145911 0.053717412 0.09146934 0.061777662
0000c0 00 34 3c 3d 6e 5a c8 3d ee 3c 09 3d ea 15 e7 3d
       0.04594803 0.09782873 0.033505373 0.11283477
0000d0 94 4b ae 3d 09 36 07 3c 03 e4 bb 3c 16 63 65 3a
       0.08510509 0.008252629 0.022935873 0.00087504217
0000e0 13 61 5b 3d 1e 99 85 bd f0 3d 7f bc 15 54 dc 3d
       0.053559374 -0.065233454 -0.015578732 0.10758225
0000f0 8c 19 61 bd 3c d3 af 3c 4d a1 bb 3c 63 f3 d0 3d
       -0.054956004 0.02146303 0.022904063 0.10202672
000100 08 9b 15 3d 31 41 0b 3c 93 04 bd 3d ee ed 18 bd
       0.036524802 0.00849943 0.09229388 -0.037336282
000110 8f 1e a5 bd b3 b3 82 bc 56 f1 a3 bc 6e 2c c0 3c
       -0.08062469 -0.015954828 -0.020012539 0.023458686
000120 78 90 88 3d b9 22 d8 bb 24 2e 85 3c d2 12 71 bd
       0.0666818 -0.006595936 0.016257353 -0.05885584
000130 86 e9 ea 3c c9 97 a1 bd 14 91 5a 39 fa 99 8f ba
       0.028675806 -0.07890279 0.00020844146 -0.0010955923
000140 86 ec d4 3d 50 3c 12 3d 57 4f 9f 3d d3 e3 55 bb
       0.10396676 0.03570205 0.07778805 -0.0032637015
000150 71 7d 56 bc bc d7 da bc b1 1a 72 3d 69 1e 65 3c
       -0.013091431 -0.026714198 0.059107486 0.013984301
000160 2c b4 ea bc 59 47 88 3d a0 cf 80 bc e9 b7 47 3d
       -0.028650366 0.066542335 -0.015724003 0.048759375
000170 0e d3 5b bd d8 1b 42 bd 02 7d eb 3d af 3d 94 bc
       -0.053668074 -0.047389835 0.11498453 -0.01809582
000180 0b c8 c9 3d fb 9b 8b bd aa 5f 84 3d 79 15 75 bd
       0.09852608 -0.0681686 0.06463559 -0.05983493
000190 4c 74 a7 bd 95 c8 15 3c f6 4f b5 bd 8e c4 6f bd
       -0.08176479 0.009142061 -0.08853142 -0.05853706
0001a0 85 5a 67 bd e9 ab bc 3c 34 8e a3 3d c8 65 35 bd
       -0.05648281 0.023031192 0.079861075 -0.04428652
0001b0 2a 25 8b bd 64 5c 39 bd 00 06 39 3d c2 fd a7 3c
       -0.06794198 -0.045254126 0.045171738 0.020506743
0001c0 b2 d2 fb bb 0a f9 69 3c ef 8d f3 3d 9e a3 d8 3d
       -0.007685029 0.014280567 0.11892306 0.105780825
0001d0 a9 1a 39 bd b6 32 02 3d b9 44 aa 3d 6b 61 a6 ba
       -0.04519144 0.031786643 0.08313889 -0.0012693828
0001e0 5d 9b cf 3c e7 97 a8 bc d2 75 cf 3d a4 2e 00 3e
       0.025342638 -0.020580245 0.10129894 0.12517792
0001f0 1f e0 8e bd 0a bc 56 3c 72 c1 aa 3d 97 65 d6 bc
       -0.069763415 0.013106355 0.08337678 -0.026171489
000200 b3 16 0c bd 3f 0b 03 3d 42 a9 6e bd 0a 89 de 3d
       -0.034201335 0.031993147 -0.058266886 0.10865982
000210 2a 8a 32 bd 7d c6 79 bd 53 d2 fe 3c 4c a5 91 bd
       -0.043588795 -0.06098031 0.03110615 -0.07111606
000220 67 0e 8a 3d 6d c6 2e 3a 6f 61 90 3d 23 3a ce 3b
       0.06741028 0.0006667141 0.07049834 0.0062935515
000230 b1 83 cb 3d 00 44 e7 3d 09 fb 75 3d e0 18 95 3d
       0.099372275 0.11292267 0.06005386 0.07280135
000240 2a d6 99 bd d6 ee 47 bd 97 86 a6 bb 62 d9 da 3d
       -0.07511552 -0.048811756 -0.0050819623 0.10685994
000250 1b 52 a8 3c 87 d2 70 bd 71 34 65 3d 07 e1 d3 3c
       0.020546963 -0.058794525 0.055958215 0.025864137
000260 7f 99 92 3d 90 84 e2 3b 65 15 18 3b 65 8d c5 3d
       0.07158183 0.0069127753 0.0023206112 0.096461095
000270 d4 d1 8f 3d d4 08 f1 3d 66 d1 e0 3d 99 0d 9f bc
       0.070224434 0.11769262 0.109774396 -0.019415664
000280 4c b4 8e 3c cc c1 07 3d 21 01 d4 3c 0a b4 cc 3d
       0.017419957 0.033143803 0.025879445 0.09995277
000290 0e 17 80 3d aa 84 87 3d 23 7e 16 bd b7 c8 21 bd
       0.06254397 0.066171005 -0.036741387 -0.039498057
0002a0 3a 61 cf bc 5d a0 aa 3d e0 75 fe bc d7 23 d7 3c
       -0.025314916 0.08331368 -0.031062067 0.026262207
0002b0 40 bf e0 bb 0a 2a 95 bc b1 96 9d 3d d5 ce ce 3c
       -0.0068587363 -0.018208522 0.07694758 0.02524511
0002c0 e4 3f 16 3d f2 a7 c6 3c 4d ee f8 bb bb 45 ba 3b
       0.036682025 0.024250004 -0.007596767 0.005684582
0002d0 0c 44 4a bc 55 1a be bc 3c b7 a9 3d c1 64 25 3d
       -0.012345325 -0.023205915 0.08286902 0.04037929
0002e0 41 b9 69 bd 08 cf 8d bd 78 ce 99 3d f5 c8 a5 3d
       -0.057061438 -0.06924254 0.07510084 0.0809497
0002f0 13 a2 ba 3b 1f 76 40 3d fb d3 b9 bc b1 45 92 3c
       0.0056955903 0.04698765 -0.022684088 0.017855497
000300 45 82 11 3e 09 1d 14 bd 14 0b 87 bb 33 d5 17 3d
       0.1420985 -0.036160503 -0.0041211937 0.037068557
000310 ed 36 2d bd 56 6c 86 bc 55 7e 1c 3d fa ec 94 bd
       -0.04228871 -0.01640908 0.038206417 -0.07271762
000320 80 74 9d 3d 06 1c 6d bc 0e 0e 84 3d 48 40 4b bd
       0.07688236 -0.014472013 0.06447993 -0.04962185
000330 00 b2 a2 3d cd db e8 3c db 99 b9 3d 75 41 b1 3d
       0.07944107 0.028425122 0.09062549 0.08655063
000340 45 c5 fe bc fd 3c 9a 3d da 0d 89 bc 94 16 99 bc
       -0.031099925 0.07531164 -0.016730238 -0.018687524
000350 d3 9e 65 3c f7 6d 10 3e 41 f8 10 3e 18 87 d3 3c
       0.014014917 0.14104448 0.14157201 0.025821254
000360 32 ea 96 3d 3d 5b cd 3c fb 94 42 bd 32 cd 5a 3d
       0.07368888 0.02506792 -0.04750536 0.053418346
000370 fc b4 4e bd 5e 71 50 3d e6 d7 92 3d 64 09 fa 3c
       -0.05046557 0.050889365 0.071700856 0.030522056
000380 c5 df 14 3e 3c 5c 84 bc b8 7e e8 bc 8d 50 23 bd
       0.14538486 -0.016157262 -0.028380737 -0.03987174
000390 4d 06 c3 3c 78 a0 51 bc 97 83 12 bd 50 aa bb 3d
       0.023806715 -0.012794606 -0.035770025 0.09163344
0003a0 7d 5c de 3c 3e 5e 5e 3d 57 30 fc bc 27 0c 95 3d
       0.027143711 0.054289095 -0.030784769 0.072777085
0003b0 93 d3 02 bd fa a6 04 bd 4e 39 9e 3d ca ae 33 3c
       -0.031940054 -0.032385804 0.07725774 0.010966966
0003c0 35 3d 97 3d 23 ad a9 3d 23 c3 5c bd a4 83 b1 3d
       0.07384721 0.08284976 -0.053897034 0.086676866
0003d0 bb 54 f1 3c f1 b6 85 bd c4 1f 63 3c 7c 45 ba bc
       0.029459348 -0.06529034 0.013862554 -0.02273821
0003e0 4e fb 83 bd 56 22 b7 3c cd 60 6f bd cd 54 0b 3e
       -0.06444417 0.02235524 -0.058441926 0.13606568
0003f0 03 3a cd 3c d6 b3 0c 3b 02 c2 4f 3c d5 ec 80 bd
       0.025052076 0.0021469495 0.012680532 -0.06295172

fc2.bias f4 [64]
000000 1c 5b cf 3d e2 9a e4 3d dd 7a a9 bb 55 c7 c3 bc
       0.101247996 0.11162354 -0.005172117 -0.02389876
000010 1d de 8d bc 6a 5b a2 bc 67 2b ba 3d 12 77 df 3d
       -0.017317826 -0.01981898 0.090903096 0.10911383
000020 89 25 8b 3d ee 11 b7 bc cd e7 5e bd a6 e6 ec bb
       0.06794269 -0.022347417 -0.05442028 -0.007229644
000030 15 62 1d bc 16 00 91 3d e7 ad aa 3c 89 3a c1 3c
       -0.009605904 0.070800945 0.020834876 0.023587482
000040 5f 1d b1 3a 9c af 97 bd 49 e8 82 3d ed c0 16 bd
       0.0013512782 -0.07406542 0.06391961 -0.036805082
000050 a8 f1 07 bd 85 89 2e bd fc 01 a9 bc 49 3a e1 bc
       -0.033189446 -0.042611618 -0.020630829 -0.027493613
000060 ec e9 ad 3c 08 e9 e5 3d 8a 6e 57 3d 30 27 fd bc
       0.021229707 0.11226088 0.052595653 -0.030902475
000070 93 4d 45 bd f2 a2 b9 bb 61 41 39 3d b3 8e 6a bd
       -0.048169684 -0.0056651765 0.045228366 -0.057264995
000080 70 46 bf bd a1 89 e8 bc 3c bf 56 bd 13 e9 5b bd
       -0.09339607 -0.02838594 -0.05242847 -0.053689074
000090 59 32 b1 3d 69 24 9e 3d 39 6e 1e 3c 84 44 b5 3d
       0.08652181 0.077217884 0.009669834 0.08850959
0000a0 02 9a 81 bd d0 c2 6d 3c 0e e7 03 3c 9d d3 19 bd
       -0.06328203 0.014511779 0.008050693 -0.037555326
0000b0 57 3e 52 bd 80 3e ea bc bb 5b a9 bd 3c 5c b0 3d
       -0.051328983 -0.028594255 -0.08269449 0.08611342
0000c0 4e 75 39 3d 67 5a a8 3d a7 0b 90 3d 73 85 76 3c
       0.045277886 0.08220368 0.070334725 0.015046465
0000d0 04 b0 11 bd 3b ff 54 3c fc a8 96 bb 0d 0a be 3d
       -0.035568252 0.013000305 -0.004597781 0.09279261
0000e0 69 29 9d bd 90 7c 54 bd d3 79 da bc 97 80 f3 bc
       -0.07673914 -0.051876605 -0.026669418 -0.029724402
0000f0 f1 ad 69 bc f1 44 42 bd d7 b6 19 bc ba f7 0d 3d
       -0.014262662 -0.04742903 -0.009381971 0.03466008

action_head.weight f4 [20, 64]
000000 93 06 b5 b9 9f 61 d0 3d a2 e3 ab bd 22 2a fc bd
       -0.00034527908 0.1017487 -0.08393027 -0.12312724
000010 65 23 8a 3d ae c5 58 bd 2b 2a 9b bd 4d 90 07 be
       0.06745032 -0.052922897 -0.07576402 -0.1323864
000020 f8 44 9f bd 81 30 fb 3c 00 c1 ee 3d 5e 88 fb 3d
       -0.077768266 0.030662777 0.116579056 0.12281869
000030 03 f8 98 bd 98 da ae bc 7c b5 ec bd 6c 1c 8c bc
       -0.074691795 -0.021344468 -0.11558053 -0.017103396
000040 47 09 33 3c f4 3f 25 bd ce 0b f7 3d 0d 71 bb 3d
       0.010927505 -0.040344194 0.120627984 0.09152422
000050 d1 26 08 bd 4a 3c b6 bd 02 1e 87 3d e1 5c 00 be
       -0.033240143 -0.08898218 0.065975204 -0.1253543
000060 b0 1f f5 3d 45 89 e5 3d db 9c d9 3d bd 6c 95 bd
       0.119689345 0.11207823 0.10625621 -0.07296131
000070 e8 17 b3 3d 12 d0 7c 3c b6 f0 84 bd d4 d4 68 3d
       0.08744794 0.015430467 -0.064912245 0.056843594
000080 96 e9 58 3d e5 76 83 bd 97 d4 cc 3c 17 d1 e5 3d
       0.05295714 -0.06419162 0.025003714 0.11221521
000090 36 d0 7a 3b 77 77 a8 bb ff 36 a4 3d 4b 3a a8 bd
       0.0038271076 -0.0051411944 0.08018302 -0.082142435
0000a0 f4 cf c6 3c e7 1c 80 bd 00 d8 01 bb 09 56 45 3d
       0.024269082 -0.06255513 -0.0019812584 0.048177753
0000b0 a9 f5 c6 bd 90 3d fd bd 16 87 3b bb f4 e0 6b 3d
       -0.09714825 -0.12365258 -0.0028614453 0.05758758
0000c0 a1 a7 03 bd 6b bc f4 3d 2b 69 17 3d 7d aa 1f bd
       -0.032142285 0.119500004 0.03696553 -0.03898095
0000d0 0f 52 02 be f1 9c cd 3d 2d 55 b3 3b fd f1 e4 bd
       -0.12726615 0.100397 0.0054728 -0.11178968
0000e0 b9 d3 00 3d c9 47 bc bd ca da da bd 57 f6 ec bd
       0.031451914 -0.091933794 -0.10686262 -0.11570423
0000f0 24 f7 11 bd c8 02 94 bd e4 a5 79 3d 69 ec 9d bd
       -0.035636082 -0.07227093 0.06094922 -0.07711107
000100 e5 0e 09 bc bc 27 f8 bd 9d a3 ce bd 0a a4 83 3d
       -0.008365368 -0.12116954 -0.100898005 0.06427772
000110 9f 0b a6 bd 27 2e 41 3d 91 61 19 bd 8a ed b1 bd
       -0.08107685 0.047163155 -0.037446562 -0.08687885
000120 ed 4e 83 3d 63 27 1e be 34 9d 9c 3b 60 d2 07 bd
       0.06411538 -0.15444712 0.0047794823 -0.033159614
000130 c9 3c 06 be c8 88 aa 3c 31 88 ba bc d0 54 28 3d
       -0.13109125 0.020817176 -0.02277002 0.04109651
000140 5a 07 70 3d 9e d1 d8 3d 9d 48 a8 bd cc 3e 90 bd
       0.05860076 0.10586856 -0.08216975 -0.070432276
000150 35 59 72 bd 2a b4 8f bd 8c a7 42 3d e6 e5 4d 3d
       -0.059167106 -0.070167854 0.047523066 0.050268076
000160 45 ae fd 3c bc 69 ac 3d a3 f4 93 3d 00 69 ac 3d
       0.030966887 0.08418605 0.07224395 0.08418465
000170 00 00 18 b7 f6 ce 28 be 0a 41 d8 bd 36 99 bd 3d
       -9.059906e-06 -0.164852 -0.1055928 0.09257738
000180 aa 76 01 3b 3d 34 c1 3d dc d6 49 3d 02 35 a1 3d
       0.0019754567 0.09433792 0.04927717 0.078714386
000190 08 3b 40 bd 9c 1c 76 bd e9 e2 8b 3b d6 09 a9 bd
       -0.046931297 -0.060085878 0.004268993 -0.08253829
0001a0 f1 a1 0a bc 3e 74 03 be 33 39 f5 bd 55 95 b7 bd
       -0.008461461 -0.12837312 -0.119738005 -0.0896403
0001b0 16 89 e4 3d 00 b8 3a ba f0 42 e0 3d 53 87 ab 3b
       0.111589596 -0.0007122755 0.10950267 0.0052346378
0001c0 3a 1d f7 3d 67 d7 75 3d 63 8a 10 3d 32 14 59 3d
       0.120661214 0.060019877 0.035288226 0.052997775
0001d0 5e 4c 56 3d bf be 7f bd 11 4d 22 be 9a b6 09 be
       0.052318923 -0.06243777 -0.15849711 -0.13448563
0001e0 27 6a c0 bd d6 63 2c bd a6 3c f1 bd 43 2b a8 3c
       -0.09395247 -0.0420874 -0.11779146 0.020528441
0001f0 74 30 7f bd a1 02 9a 3d 5e f3 c5 bd 16 4f 6a bd
       -0.062302068 0.07520033 -0.09665559 -0.05720433
000200 1f 8c e3 bd c2 2d 40 bb 27 2a 89 3d ac 73 ec bd
       -0.1111071 -0.0029324149 0.06697493 -0.115455
000210 99 38 05 3c 40 27 f2 bd bd 23 0f bd 2a c3 69 bd
       0.00813117 -0.118238926 -0.034946192 -0.05707089
000220 b2 88 df 3d d4 8b e4 3c 75 82 b9 3d dd e4 ef 3d
       0.109147444 0.027898706 0.09058086 0.11713574
000230 7d 5a 91 bd df da 4e 3d ae 89 2f 3d fb 4b d7 3d
       -0.070973374 0.0505017 0.04285591 0.10512539
000240 b4 32 13 3c 48 91 04 be a2 4a fa 3c 5e 11 8a bd
       0.008984257 -0.12946045 0.030553166 -0.06741594
000250 ec a2 f0 bd cd a0 c6 bb 0d 6e ab bd 3d 29 1a 3d
       -0.11749825 -0.0060616494 -0.083706 0.037636984
000260 4c 12 37 bd da 4b 5c 3c 16 c5 b2 bd 1f f9 c0 3d
       -0.044695184 0.013445819 -0.087289974 0.09422516
000270 f0 20 4c bc 7e a0 5b bd 67 9d be bd 9a 2e de 3d
       -0.012459025 -0.053619854 -0.09307366 0.10848732
000280 54 cf f0 bd c6 99 e9 3b 30 2b 66 3c 1d f8 b8 3d
       -0.11758295 0.007128927 0.014048383 0.09031699
000290 1e d4 a3 3c b1 b8 ac bd 80 f5 4e 3d 33 42 41 3d
       0.019998606 -0.084336646 0.050527096 0.047182273
0002a0 0b 85 85 bd 34 5f b6 3c 7e a6 14 bd a9 98 3f bc
       -0.065195166 0.022262193 -0.03629159 -0.011694112
0002b0 de 08 83 bd 5c 5a ef 3d 4c 64 ba bd 70 31 d3 3b
       -0.06398176 0.116871566 -0.09101161 0.0064451024
0002c0 93 01 8b 3d eb 27 ba bd 95 c7 36 bd 45 29 82 bd
       0.0678741 -0.09089645 -0.04462393 -0.06355528
0002d0 e1 99 a5 3b 6a da a1 bd 78 ab af bc 70 7b 1e ba
       0.005053744 -0.07902987 -0.021444067 -0.00060456153
0002e0 88 d2 f5 3d ad 38 bb 3d 84 58 a2 bd fc 47 ec 3d
       0.12003046 0.091416694 -0.07927039 0.115371674
0002f0 e8 95 00 bd d5 b2 d1 3d 3c b7 b9 3d e7 95 a9 bd
       -0.03139296 0.10239188 0.09068152 -0.08280545
000300 5d ef 35 bd 4d cb a1 3d ed 6f 71 bc ea 38 e8 bd
       -0.044417728 0.07900105 -0.014736158 -0.113389805
000310 55 b8 3d bc 7e da 15 3e 03 77 d4 bb 79 37 81 3d
       -0.011579593 0.1463413 -0.006483914 0.06309409
000320 34 d8 02 be e5 05 ea 3d b2 3b be 3c a8 8a 18 3c
       -0.12777787 0.114269055 0.023221824 0.009310402
000330 53 39 9a bd 46 4d 12 3d 5d d1 c2 3d 23 82 de 3d
       -0.07530465 0.035718225 0.09512589 0.10864665
000340 7e f7 cb bd 0d b0 53 3c 0f 25 6c bc 3b 50 2c be
       -0.09959315 0.012920392 -0.014413132 -0.1682748
000350 20 2b bf 3d 76 81 f8 3d 39 bf 63 bd b7 92 9f 3d
       0.09334397 0.12134068 -0.055602286 0.077916555
000360 a0 95 ce bd 95 aa 84 3d 29 e0 74 bc fe b1 37 be
       -0.100871325 0.064778484 -0.014946022 -0.17938992
000370 d4 49 4d bd fc 1f 7d bd ba 57 20 bd a2 1f 94 3d
       -0.050119236 -0.06179808 -0.039146163 0.07232596
000380 17 27 d6 bd 06 3c 08 3e 9e b2 d2 bd 06 dc ce 3d
       -0.104566745 0.13304147 -0.10287975 0.1010056
000390 a9 95 f3 3d 3b 3f c0 bd ac 14 83 bd 2d 92 9c 3a
       0.1189378 -0.0938706 -0.06400427 0.0011945419
0003a0 97 a1 b7 bd 47 02 8a 3d c2 36 d1 bd 8d 36 a9 bd
       -0.08966368 0.067387156 -0.10215522 -0.08262358
0003b0 9d 94 30 3d 90 2a ef bd 0e 5a d8 bb 50 14 3e 3c
       0.04311048 -0.1167804 -0.006602532 0.011601523
0003c0 73 f5 17 bc 3a 90 cf bd 64 ac 12 bd 08 b7 61 3d
       -0.009274828 -0.10134931 -0.035808936 0.055106193
0003d0 01 6f 89 3d 51 0f 91 3c 75 3d e5 3d 0d e2 14 3e
       0.067106254 0.017707499 0.111933626 0.14539357
0003e0 84 59 f1 bd e2 32 e3 bd 34 4b a1 3d d7 5b 63 3c
       -0.11784652 -0.110936895 0.07875672 0.013876877
0003f0 90 23 aa 3d 22 f3 04 bd 7d 17 da 3d 8c b5 6b 3c
       0.08307564 -0.032458432 0.10649011 0.014386546

action_head.bias f4 [20]
000000 78 9e 96 bd d5 7d a9 bd b4 24 a3 3c 87 cc e8 bc
       -0.07354444 -0.08275954 0.019914962 -0.028417839
000010 bb e8 7d 3d c5 35 86 3d 03 46 41 3d 49 49 f0 bd
       0.061989527 0.065532245 0.04718591 -0.11732728
000020 df 8a 52 3d f9 4e bc bd a0 cd f4 3b f4 d7 0c 3d
       0.05140197 -0.0919475 0.0074708015 0.034385636
000030 9a 81 11 be 02 45 05 be ad c1 b3 bc bc 6f fe bd
       -0.14209595 -0.13014606 -0.021942938 -0.124236554
000040 77 08 54 bd db be e8 3d 26 5a 88 3d 57 2b a7 3d
       -0.051765885 0.11364528 0.066578194 0.08162563

value_head.weight f4 [1, 64]
000000 01 8c e7 3d a9 a3 14 3e d2 43 3a bd da e4 ec 3d
       0.113060005 0.14515556 -0.045474835 0.115670875
000010 62 4e b9 bd f6 92 a1 3d e1 a1 26 3d 60 68 03 3e
       -0.090481535 0.07889359 0.040681724 0.12832785
000020 86 c2 3d 3d 21 24 15 3d ab cf 2d bd 2a db bc bd
       0.04632809 0.03641141 -0.042434376 -0.0922149
000030 31 61 40 bd be 17 6e 3d de 9a a5 bd af 03 07 3c
       -0.04696769 0.05812811 -0.08086179 0.008240624
000040 35 23 e8 3d 50 af 07 bd 54 0d 79 bd ec 83 9f 3d
       0.1133484 -0.033126175 -0.060803726 0.07788834
000050 39 45 d6 bd 34 c0 d6 bd 9c 61 ce 3d 35 00 a8 bd
       -0.10462422 -0.104858786 0.10077211 -0.082031645
000060 3a c9 cd 3d 83 28 8b 3d 61 c7 de bd ac 9e ed 3c
       0.100481465 0.06794836 -0.10877872 0.029006325
000070 40 89 b1 3b 40 3f 5b 3d 6f 7d a9 bd 86 a2 82 bd
       0.005417973 0.053527117 -0.08275878 -0.06378655
000080 15 f0 d3 bd c9 6d 9b bb 42 cc b4 3d ab 4a 9d bd
       -0.103485264 -0.004743312 0.088280216 -0.076802574
000090 35 b8 a2 3d a2 5a d2 3d ac 92 5c bc e4 ce f7 3d
       0.07945291 0.10271193 -0.013462704 0.12100008
0000a0 c7 f0 35 3b 2a fe 80 3c 2a 19 e7 bd cf 30 86 bd
       0.0027761923 0.015746195 -0.112840965 -0.06552278
0000b0 c5 7b 14 bd 80 33 91 bb 3c ff a7 bd f8 31 00 3d
       -0.03625085 -0.004431188 -0.08202979 0.031297654
0000c0 ca 09 c4 bd 3b 66 58 3c ee 76 44 bd 2c 90 6b bd
       -0.095721796 0.013207967 -0.047964983 -0.05751054
0000d0 ce c8 4a bd 81 fc 5d bd 9d c0 8e 3d b6 f7 aa 3d
       -0.04950791 -0.054195885 0.06970332 0.08348028
0000e0 ec a9 71 bd e4 3d b6 bc c2 40 87 3d be 6c b6 bd
       -0.05899994 -0.022246309 0.066041484 -0.0890746
0000f0 40 94 e1 bd e7 a7 c7 3d 70 c8 ee 3d 07 be ad bd
       -0.110146046 0.09748822 0.11659324 -0.084835105
