latest.pth (torch, 497807 bytes, 7 tensors)

fc1.weight f4 [128, 800]
000000 33 3a 18 3c 5c e7 e5 3d 22 1c 59 3b 21 56 16 bc
       0.0092912195 0.11225769 0.003312834 -0.009175808
000010 0f 83 51 bd 28 f7 fb bc 74 06 49 bd 44 ca 39 bd
       -0.051150378 -0.030757502 -0.04907842 -0.04535891
000020 7d 68 4d bc ac b4 06 bd a6 ec 0a bd 8c dd 96 bc
       -0.012537119 -0.032887146 -0.03391709 -0.018416189
000030 94 2e 3c bc eb 85 5d 3b ed 47 4f 3d d1 79 c3 bc
       -0.011485714 0.0033801745 0.050605703 -0.023861798
000040 e0 e4 9c 3c 6a 2e b5 3b 74 5b fa 3b 84 21 05 3b
       0.019152105 0.0055292146 0.0076402966 0.0020314166
000050 e4 40 e8 bc c1 c8 01 bd 6f da 2a 3d 63 68 88 3c
       -0.028351255 -0.031685594 0.04171222 0.016651338
000060 e4 89 ad bc 89 f1 35 3c 54 49 79 3c 01 81 04 bc
       -0.021183915 0.01110495 0.015215237 -0.008087398
000070 ca 27 30 bd f9 a6 a4 3c 6c 7e 22 bd 2d 43 00 bd
       -0.043006696 0.02009915 -0.039671347 -0.031314064
000080 57 5c 87 3c 52 04 f2 bb 07 c1 89 3c 0b 21 24 bc
       0.016523523 -0.007385769 0.016815675 -0.010017644
000090 b3 71 0e 3d 7f 23 00 3b 1a af ae bb 49 1f 9c 3b
       0.0347764 0.0019552407 -0.0053309323 0.0047644717
0000a0 d2 36 02 39 3e 67 fe 3d 4a 10 12 3d 09 fb 69 ba
       0.00012418188 0.12422036 0.035660066 -0.0008925652
0000b0 2b ec 53 bd e1 19 46 bd 2f a4 3e 3c 0d b4 7a bd
       -0.0517389 -0.048364524 0.011635824 -0.061206866
0000c0 9a ed 08 bd 9d fc 18 bd 19 54 b7 3c 73 75 01 3d
       -0.03342972 -0.037350286 0.022378968 0.03160615
0000d0 53 d6 04 3c 44 63 47 3c 83 9b 55 bd 62 7e 21 bd
       0.0081077395 0.012169663 -0.05215026 -0.03942717
0000e0 ba 30 94 3c f5 ed 0c bd 37 90 31 bc bd 92 d8 bc
       0.01808964 -0.03440662 -0.010837606 -0.026437158
0000f0 d2 0d ff 3b 4b fc 4e bd 60 c2 73 bb 39 a2 a9 bc
       0.00778363 -0.050533574 -0.0037194714 -0.020707237
000100 6a 21 77 bb 10 21 41 3c 2a bc 55 bc 5c c0 86 3b
       -0.0037709125 0.011787668 -0.01304535 0.0041122865
000110 f1 6a 0d bc 3e 8c fe 3c 32 36 ae 3c a9 30 06 3d
       -0.008631454 0.031072732 0.021266077 0.03276125
000120 1b 96 d7 ba de 73 44 bd da 84 dd 3b b2 80 51 3d
       -0.0016447933 -0.047962062 0.006760222 0.051148124
000130 3d ee d0 bc d6 35 73 bd d4 15 a6 3c 20 4b 33 bd
       -0.025504226 -0.059377514 0.02027408 -0.043772817
000140 b2 fc 2a bb 85 a4 c9 3d 09 05 11 bc bd 1b 50 bd
       -0.002609056 0.09845833 -0.008851298 -0.050807703
000150 e8 3a 95 bc cf 0d 28 bd c6 66 39 bd 54 98 2d bd
       -0.018216565 -0.041028794 -0.045264028 -0.0423816
000160 8d 60 f2 bc 60 13 75 bd 01 04 46 bd 59 92 a2 3c
       -0.029587055 -0.05983293 -0.048343662 0.019845175
000170 95 1d 8a bb 88 9a b3 bb 86 b3 55 3d d6 98 28 bd
       -0.0042149522 -0.005481068 0.05217316 -0.04116138
000180 06 fb bb bc dc 30 73 3c ac ea 24 bd 58 8e f5 bc
       -0.022946846 0.014843192 -0.040262863 -0.029975101
000190 dd b9 43 bc 3d b7 99 bc 56 33 fa bc db f4 ed 3c
       -0.011946169 -0.018764133 -0.030542057 0.02904742
0001a0 1e 2f bb 3c e3 bd 13 3d 82 04 cb 3b e0 76 9e bd
       0.022849616 0.036069762 0.0061956057 -0.07737517
0001b0 be eb 0d bd 8f 37 df bc ff 94 65 bd d6 77 11 3d
       -0.03464865 -0.027248172 -0.056050297 0.035514675
0001c0 38 4d 6a bc a3 fe 00 bc ce 5f 68 bd d0 b2 0f bc
       -0.014300637 -0.00787321 -0.05673199 -0.00877066
0001d0 0d 6d 72 3d 03 fe dd 3b 49 72 a6 3c 7d a9 72 bd
       0.05918603 0.0067746653 0.020318167 -0.059243668
0001e0 11 f5 d6 bc 6c 86 cd 3d 8c e7 71 3b 23 10 ea bb
       -0.026239904 0.100354046 0.0036911694 -0.007143037
0001f0 07 02 1c bd ba 70 bd bc 23 24 f0 bc 70 60 fc ba
       -0.03808787 -0.023125041 -0.029314106 -0.0019254815
000200 76 a2 a0 bc a8 b5 88 bd 79 43 ff 3b 85 24 39 3d
       -0.019608717 -0.06675273 0.007790026 0.045200843
000210 8b 62 de 3a 6f 77 ba 3c c0 45 82 bc 2e 66 57 3c
       0.0016966624 0.022762029 -0.0159024 0.01314692
000220 69 9a 41 bd c5 1e 4f bd 58 13 b1 bb 40 62 d2 bc
       -0.047266398 -0.050566453 -0.0054039173 -0.025681615
000230 94 9e 9e 3c 08 0f 75 bd 6f 55 e4 bc 2c db 0a 3c
       0.019362725 -0.059828788 -0.02787277 0.008475106
000240 4e a4 84 3b 49 e5 80 bc 9f b3 9e bc 4c c3 55 bc
       0.004047907 -0.015734332 -0.01937276 -0.013047051
000250 e8 2c 88 3c ab ea 1d 3c 8f aa b4 bb 35 a3 47 bd
       0.016622975 0.009638469 -0.005513496 -0.04873963
000260 86 67 b7 bc ee 9b 57 bd 04 1b 03 3d 6d de 45 3c
       -0.022388231 -0.05263894 0.032008186 0.012076956
000270 d8 89 31 bd 6f 25 9f bd 1a 2f 11 3d 2e 71 3a 3b
       -0.04334435 -0.07770812 0.03544531 0.0028448808
000280 4f d4 f0 3c 75 65 bd 3d a4 94 e1 bb a6 aa 64 bd
       0.029398112 0.09247867 -0.0068841744 -0.055826806
000290 19 3d 08 3d c9 47 f1 ba bc d8 b0 ba 51 a5 7d bd
       0.033261392 -0.0018408234 -0.0013492326 -0.061925236
0002a0 de e3 a0 3a 0a c1 eb 3a d1 75 19 bc 2b b6 a2 bc
       0.0012274941 0.0017986607 -0.0093664685 -0.019862255
0002b0 67 92 58 b9 74 98 8f 3c 5f 64 16 3c 70 2e 55 bd
       -0.00020653904 0.01752875 0.009179204 -0.05204624
0002c0 c8 0c 78 3c f6 8a 93 3c 88 9b 4c bc 8a e3 20 3d
       0.015139766 0.018010598 -0.012488253 0.0392795
0002d0 54 ee c7 bc 74 19 50 3d 84 ae e7 3b ac 5a af 3c
       -0.024405636 0.050805524 0.0070703644 0.02140554
0002e0 db 30 68 bc 46 4e d8 bc e6 69 5c bc 40 de 97 3c
       -0.014171804 -0.026404511 -0.0134529825 0.018538594
0002f0 79 df 7f 3c c5 cd 68 bd 45 34 66 bb a8 91 19 3b
       0.015617245 -0.056836862 -0.003512637 0.0023432765
000300 36 4b 24 3c c0 b4 5b bd 16 9c ab ba eb 8d 50 bb
       0.010027697 -0.053639174 -0.0013092782 -0.003182287
000310 42 66 89 39 ac 9b c2 3c 1d 0b 1e bd f8 8a 0c bc
       0.00026206864 0.02375587 -0.038584817 -0.008578055
000320 6d 1a 06 bc 3c 20 bb 3d ad db ab bc 70 61 23 bc
       -0.008185011 0.091370076 -0.020978773 -0.009971961
000330 e7 46 33 bc 69 c7 19 bd 7a ff 3a 3c d5 4b 6c bc
       -0.010942197 -0.037543688 0.011413449 -0.014422377
000340 dc 26 56 bd f4 99 77 bc 05 b2 04 bd 85 e0 4a bd
       -0.052283153 -0.015112389 -0.032396335 -0.049530525
000350 0e b9 36 bb d6 34 00 3c 56 e5 21 bd da ec f4 bc
       -0.0027881297 0.007825097 -0.039525352 -0.029898096
000360 da d6 15 bd 34 ff 83 3c 32 0f 17 3d 72 41 9b bb
       -0.03658185 0.016112901 0.036879726 -0.0047380263
000370 16 f5 be 3c 1b 5a 44 3c 11 fd ea bc ed 77 bc 3c
       0.023310225 0.011984373 -0.028685125 0.023006404
000380 6a 78 fc bc fb a0 01 bd e9 07 1d bd 32 a7 05 bd
       -0.030819137 -0.031647664 -0.03833762 -0.032630153
000390 9b 9b 4e bd 7c 2d 0c bd 45 43 31 bc fa 4b 02 3c
       -0.050441366 -0.034223065 -0.010819261 0.007952685
0003a0 dd 65 82 3c 28 9c b6 3b ee ef 59 3d a1 30 18 bd
       0.015917713 0.0055728145 0.05320733 -0.03715575
0003b0 e0 30 01 3c 91 25 22 bc d9 e8 c5 3c 45 67 e9 bc
       0.007885188 -0.009896652 0.024158882 -0.028491626
0003c0 4c b4 97 3c 05 bc 45 3d 63 6d ee 3c e0 f3 be bc
       0.01851859 0.048275013 0.029104894 -0.023309648
0003d0 0f eb 87 3c 35 16 0d bd f1 32 db bb 33 b5 46 bc
       0.016591577 -0.034445006 -0.0066894223 -0.012128162
0003e0 ce fa 1c bc 60 61 b0 3b e6 22 13 bd e5 ee 1e 3c
       -0.009581281 0.0053827018 -0.035921954 0.009700512
0003f0 4d f1 bc bc be 70 22 3c 26 5b 29 bc 37 3a 5a bd
       -0.02306428 0.009914575 -0.010336673 -0.053278174

fc1.bias f4 [128]
000000 8b 40 33 3d 4c e4 1b 3d af 8e 02 bd 78 1f e9 bc
       0.043762725 0.038059518 -0.031874355 -0.028457388
000010 78 de 68 3d f4 77 dc 3c 98 52 40 3d bc 16 bc 3d
       0.056852788 0.026912667 0.046953768 0.09184024
000020 88 38 78 3d 68 81 96 3a 06 27 fa 3c c2 92 b0 3d
       0.060600787 0.0011482658 0.030536186 0.08621742
000030 70 aa 08 3d 49 b8 8c 3d 6e 15 db 3c 6c 7a 70 3d
       0.033365667 0.06871087 0.026743617 0.0587105
000040 78 6f 1e bc 56 b0 3e 3c 10 93 01 bd 57 4f 0e 3d
       -0.009670131 0.011638721 -0.03163439 0.034743633
000050 a9 85 9f 3d 78 3b aa 3c d2 1f 9f 3d e9 42 25 3d
       0.077891655 0.02078031 0.07769741 0.040347014
000060 cc a1 83 bc 81 29 b9 3d 7a b4 58 3d 9f 91 8e bb
       -0.016068362 0.09041119 0.05290649 -0.0043508555
000070 1e d9 53 3d b2 17 d5 39 f1 4d 78 3d ca 82 55 3d
       0.05172073 0.0004064418 0.060621206 0.052126683
000080 af 87 c2 3d b5 b1 8a bc 3a 32 25 bd 80 f7 ab 3d
       0.09498536 -0.01693044 -0.040331103 0.08396816
000090 78 3b f4 bc cf 93 8a 3c 62 06 a4 3d f1 29 2a bc
       -0.029813513 0.016916184 0.0800903 -0.010385976
0000a0 bd 45 a4 3d a9 2a 8c 3d 86 7c c7 3d 47 4e 1b bc
       0.08021114 0.06844074 0.09740548 -0.009479112
0000b0 14 50 0a 3d ea a7 35 3d cd 96 9e 3d c6 66 62 3d
       0.033767775 0.04434959 0.07743607 0.055273794
0000c0 5e 45 6a 3d 1e df 81 3d 13 ed 21 3d 2e ea ab 3d
       0.05719506 0.06341384 0.039532732 0.083942756
0000d0 89 dc 96 3d 52 af a8 3d 70 a0 9f 3d 4a ba d5 3c
       0.073662825 0.08236565 0.07794273 0.026089806
0000e0 1f e6 99 3d 75 71 e3 bc 15 38 9f 3d 05 08 b1 3d
       0.07514595 -0.027764061 0.07774369 0.08644108
0000f0 85 f3 8c 3d 0c 36 4a 3d 0f 1c 54 3c fd ce 79 3d
       0.06882385 0.04936795 0.012946143 0.060988415
000100 72 05 d3 3c e5 09 60 3d 2e 93 86 3d 61 96 3c 3d
       0.025759432 0.054696936 0.06571041 0.04604185
000110 5f 69 26 3c 6d 94 a1 3d 98 44 2b 3d d1 ea 09 3d
       0.010156958 0.07889638 0.041813463 0.033671204
000120 9b 61 ae 3b 0a 11 5b 3d f8 48 74 3d 3d bf f7 3c
       0.005321694 0.053483047 0.0596399 0.030242557
000130 ed 10 67 3d 2f 8c 18 3d 2c 45 82 3d df c3 c2 bc
       0.056412626 0.037243064 0.0636085 -0.02377504
000140 3d e5 8f 3b 25 33 7b 3d 20 99 91 3d d4 0e 32 3c
       0.004391341 0.061328072 0.071092844 0.010867793
000150 e9 50 2b bc 71 78 53 3d 33 69 86 bc 6a b5 d2 bb
       -0.010456302 0.051628534 -0.016407585 -0.0064303176
000160 e5 4c 20 3d 3b 22 a3 3d d7 76 6e 3d a3 a9 e9 3c
       0.039135832 0.07965513 0.058218803 0.028523272
000170 ad 67 3a bd 63 a9 b9 38 b8 62 03 bd 2b d6 ab 3d
       -0.04550903 8.853038e-05 -0.032076567 0.08390459
000180 d9 0e 1e 3d 13 f8 74 3b d5 6d 7b 3d 73 b2 6f 3d
       0.03858838 0.003737931 0.06138404 0.05851979
000190 e0 14 80 3d 00 57 81 bc 2f aa 92 3d 69 3b f6 bb
       0.062539816 -0.015788555 0.07161366 -0.0075144065
0001a0 23 17 95 3d 12 69 15 bc cf 50 a0 3c ad 85 79 3d
       0.072798036 -0.009119289 0.019569783 0.0609185
0001b0 23 bb b4 3c 2d 86 91 3d 02 4b 74 3c d1 00 8e 3d
       0.02206189 0.0710567 0.014910461 0.069337495
0001c0 d7 37 86 3d b3 66 a8 3d 8c 80 9b 3d bf 2c b5 3c
       0.06553619 0.08222713 0.07592878 0.022116063
0001d0 cd 01 9a 3d 3d 6e dd 3c 21 4c 8e 3d 90 c5 69 3b
       0.07519875 0.027030105 0.06948114 0.0035670735
0001e0 a1 a2 82 3d 98 15 2a 3c 25 e6 98 3d 40 33 8a 3d
       0.06378675 0.010381125 0.074657716 0.067480564
0001f0 aa ef 7f ba cb c8 c5 3c 1f f7 0f 3d ba a1 bd 3c
       -0.0009763191 0.024143597 0.035147782 0.023148406

fc2.weight f4 [64, 128]
000000 73 a2 6a bd e8 bc 8f bd 74 96 c0 bc b5 e0 14 3d
       -0.05728383 -0.07018453 -0.023509242 0.03634711
000010 b9 5f 85 3d 66 ef 2b 3d 0b 88 9c bd ab 3e 81 bd
       0.06512398 0.041976355 -0.07643136 -0.06310781
000020 a9 8d 9a 3d 73 fa 94 3c 19 82 67 3d 04 b0 7c 3d
       0.07546551 0.01818583 0.056520555 0.0616913
000030 e5 f9 8e bd 74 73 a3 bd e3 9d 83 3c 05 0f dc 3b
       -0.06981257 -0.07981005 0.016066497 0.0067156577
000040 cc 96 78 3d 1a a3 9f bd 7c be f1 3a fb 25 9b bd
       0.060690686 -0.07794781 0.001844361 -0.075756036
000050 00 72 16 bd 61 f3 aa bd a6 e5 df bc c0 ad 85 3d
       -0.036729813 -0.08347202 -0.027331185 0.06527281
000060 ce 44 13 3c a0 c1 46 bd 45 58 bc bd 13 3d 46 3d
       0.008988572 -0.0485245 -0.091965236 0.04839809
000070 ef a2 ad 3c a9 29 60 3d 0f 24 30 bd 70 4c b8 bd
       0.021195857 0.05472723 -0.04300314 -0.08998954
000080 1e df cb bc 8e 80 3e 3d 3e b0 2d bd 53 47 56 3d
       -0.024886664 0.046509318 -0.042404406 0.052314114
000090 a1 d7 bb bd aa e8 f7 bc f2 17 85 bd 2d 7b 43 bd
       -0.09171987 -0.03026231 -0.06498708 -0.04772489
0000a0 c4 0d 5c 3d 9c 77 99 bc 91 92 4d 3d 05 6b 03 bd
       0.053724065 -0.018733792 0.050188605 -0.032084484
0000b0 37 30 50 3d 7b 9a 87 3d f9 f5 7e bd d7 b3 00 3d
       0.05082723 0.06621262 -0.062246297 0.03142151
0000c0 1f e3 ab bc 40 1f 5a bd 51 48 03 3d 1d ae d9 bb
       -0.020982323 -0.05325246 0.03205139 -0.0066430704
0000d0 a9 5d 7f bd 77 03 25 bc d9 ff 55 3d 3f 82 8a 3d
       -0.06234518 -0.010071627 0.05224595 0.06763124
0000e0 4f 58 6d 3d 67 c4 bd bc bd 90 c1 bd f1 30 91 3d
       0.057945546 -0.023164941 -0.09451435 0.07089413
0000f0 a7 bc ad bd b7 ad 9f 3d 63 dc ab bd 21 cc 7f 3d
       -0.08483248 0.07796805 -0.08391645 0.062450532
000100 49 47 2d bc 14 73 70 3d df bc 40 bd c1 74 94 3d
       -0.010576078 0.058703497 -0.04705512 0.072488315
000110 a2 31 14 3d d7 13 2d bd d1 fc d6 3c e5 dc 63 bd
       0.036180146 -0.04225525 0.0262436 -0.055630583
000120 95 56 3a 3c 11 8d 84 bc 9b 3f 40 bd d3 90 1b 3d
       0.011373182 -0.016180547 -0.04693566 0.037979912
000130 5a f5 65 bd f2 48 8f 3d 0a 2c 04 bc 6c 37 1f 3d
       -0.05614219 0.06996335 -0.00806714 0.038871214
000140 87 8a 23 3c e0 20 3a bd 4c 53 9a bc ee b7 8c 3d
       0.009981758 -0.04544151 -0.018838547 0.06871019
000150 43 92 54 3d 0a ed 20 3c c2 bc 21 bd 68 76 53 bd
       0.0518973 0.0098221395 -0.039486654 -0.051626593
000160 13 73 8c 3d ff 06 f3 bc 93 e8 06 3d 0e d6 f8 3c
       0.06857886 -0.029666422 0.032936644 0.030375507
000170 c7 ce 1b bc be eb ad 3c aa 13 f4 bc 57 05 9a bd
       -0.009509749 0.021230575 -0.029794533 -0.0752055
000180 94 22 66 bd 01 0a a8 bd 16 6f 53 3c b5 ea 64 bd
       -0.05618532 -0.08205033 0.012904903 -0.055887897
000190 11 55 f8 3c 10 29 16 3d 64 ea 4b 3c 81 ff 55 bd
       0.030314 0.036660254 0.01244602 -0.05224562
0001a0 b0 62 a3 bd 8c 77 83 3c 2f b6 97 bd d3 53 1d 3d
       -0.079778075 0.016048215 -0.07407796 0.03841002
0001b0 ee 0b 95 bd 0a c8 84 3b 1c 16 92 3d c2 9b 66 3c
       -0.07277666 0.004052167 0.07133123 0.0140752215
0001c0 df da 9b 3c 12 55 bf 3c 5c 75 8f bd 32 d2 04 bd
       0.019025264 0.023355994 -0.070048064 -0.03242702
0001d0 5c 51 4c bd ee 84 92 bd 1a fb 0b bd df 6b 48 bc
       -0.049882278 -0.071542606 -0.034175016 -0.01223275
0001e0 2d 2e 2f bd ba 2f 97 bd b9 de 6e bd 84 eb d2 bc
       -0.042768646 -0.0738215 -0.058317874 -0.025747068
0001f0 9e 8b 27 bd 4c 79 73 3a 66 c1 88 3d 6a 85 78 bc
       -0.040904634 0.0009287789 0.06677513 -0.015168527
000200 39 b8 c3 3d 95 fe 99 3d c2 f5 8a 3c 41 61 1c 3d
       0.09556622 0.07519261 0.01696289 0.038178686
000210 a3 16 e7 3d 8d 4c aa 3c 0e bf 8d 3c 80 6a 11 bc
       0.112836145 0.020788455 0.017303016 -0.008875489
000220 ed 65 e5 3d 8a 5a e2 3d f0 b3 93 bc 22 fb bd 3d
       0.112010814 0.11052425 -0.018030137 0.092764154
000230 82 25 cf 3c 4f 53 c4 3d c9 a8 fd 3c dd 7d b3 3c
       0.02528644 0.09586202 0.030964272 0.021910602
000240 0a 65 05 bd 48 21 3f 3d 94 07 39 bd ee af c7 3d
       -0.03256706 0.0466626 -0.045173243 0.09750353
000250 13 de 10 3c a1 33 55 3d 54 4b b0 3d b7 6c d0 3d
       0.008842009 0.05205119 0.08608118 0.10176986
000260 96 a4 2f bd 48 ef 9a 3d a9 d4 9f 3d d1 d5 9c bc
       -0.04288157 0.075651705 0.078042336 -0.019144924
000270 0b de 06 3d 97 f9 85 bc a0 f8 8a 3c 44 2b c3 3d
       0.0329266 -0.016354365 0.016964257 0.09529737
000280 b6 f2 8b 3d df 77 f5 3b c1 ab 09 bd f5 20 8a 3d
       0.06833403 0.0074910964 -0.033611063 0.06744567
000290 d4 8a 45 3c df f3 9a bd 5e c6 87 3d d0 1f b2 3d
       0.012057025 -0.07566046 0.066296324 0.08697474
0002a0 22 1e b2 3c b1 04 e3 3d 9b 10 87 3c 43 0e 9a bd
       0.021742884 0.11084879 0.01648741 -0.075222515
0002b0 ab 82 8d 3c 82 36 68 3c cf 6b 9b 3d 1d 46 e2 3d
       0.017274221 0.014173152 0.07588922 0.11048529
0002c0 e6 87 0b bd 8f 2e 04 3d a2 0b cd 3d c4 98 d0 bc
       -0.03406515 0.032270964 0.100119844 -0.02546347
0002d0 77 8b 7f 3d 5f 6c ea bc b9 c9 fb 3c 3e a3 a8 bd
       0.062388863 -0.028616128 0.030735837 -0.08234261
0002e0 3e 57 b3 3d f5 6c 44 bd d0 40 72 3d f5 b1 6c bb
       0.087568745 -0.047955472 0.05914384 -0.0036116813
0002f0 27 68 2c bc 8d bc 15 3c 41 af 0a 3d 1c d1 27 3d
       -0.010522879 0.009139192 0.03385854 0.040970907
000300 6f e7 0d 3d 30 01 20 3d 63 d3 dc 3d 8a ea 3c 3d
       0.03464454 0.039063632 0.10782506 0.04612211
000310 36 29 e4 3d 6b 4c 03 bc f9 82 a2 3d 68 b1 ca bc
       0.11140673 -0.008013825 0.07935137 -0.024742797
000320 5d 82 64 bd ec 30 8b bb 6e 11 d6 3d e4 f4 62 b8
       -0.055788387 -0.0042477753 0.10452543 -5.411067e-05
000330 f0 4f 0f 3c 8c 8b c7 bc 50 b0 21 3d d4 56 9a 3d
       0.008747086 -0.024358533 0.039474785 0.075360924
000340 30 5e b7 bc 2a 34 a2 3d dd 9c 19 3d b4 51 d6 3d
       -0.02238378 0.07920106 0.037503112 0.104648024
000350 a2 06 9d 3d 2d 64 46 3d 99 1f 2c 3d 1c c6 10 bd
       0.07667281 0.04843538 0.04202232 -0.03534518
000360 7b f2 9f 3d 5c fd 10 3e 92 86 d3 3c f1 03 ed 3d
       0.07809921 0.14159149 0.025821004 0.115730174
000370 4c 33 53 3d c4 55 9c 3d d8 a6 c3 3c 64 67 e2 3d
       0.051562592 0.07633546 0.023883268 0.110548764
000380 50 26 b4 3d a3 37 17 3d 5b ee ed 3d dc 61 c7 bb
       0.0879637 0.036918294 0.11617728 -0.006084664
000390 f7 f6 97 3c 52 fa 63 bd c7 2a 33 3d a7 d1 86 3d
       0.01855038 -0.055658646 0.043741968 0.06582957
0003a0 9e 60 ea 3b 8b 09 6a 3d 73 84 d4 bc d4 d7 aa 3c
       0.007152631 0.057138007 -0.025942063 0.020854868
0003b0 9c 16 4e bd 8d a2 a1 bb 5a e1 8c 3d 1c 6c 88 3d
       -0.05031453 -0.0049327076 0.0687892 0.06661245
0003c0 60 ef 59 bc 73 83 cc 3d 53 c2 02 3d 80 ba ac bc
       -0.0133017 0.099860094 0.031923603 -0.021085024
0003d0 5c d1 21 3d ab 96 9f bc 4f c5 ca 3d 12 29 87 bd
       0.0395063 -0.019481024 0.09900915 -0.065996304
0003e0 67 f4 47 3c 41 b8 50 3d 3e d6 ad bc b4 30 0f 3d
       0.012204266 0.05095697 -0.021220323 0.034958556
0003f0 a6 45 89 bc 91 d0 62 3c 2e 31 91 b8 8f d5 ce 3d
       -0.016756844 0.013843671 -6.923299e-05 0.10099327

fc2.bias f4 [64]
000000 a7 48 bd 3b 5d 16 56 bc c5 8d 38 bc 93 09 43 3d
       0.005776483 -0.013066855 -0.011264269 0.047616553
000010 de 69 21 bc 60 77 9c 3d ec 61 58 3d d7 55 51 bb
       -0.009851901 0.076399565 0.05282776 -0.0031942034
000020 8d 01 49 3d 18 c8 a3 bd a1 23 6b ba 9e 83 2d 3d
       0.049073745 -0.07997149 -0.00089698477 0.042361848
000030 05 26 43 3d e0 48 d1 3d f5 29 d6 3d 02 ec 58 3c
       0.04764368 0.10218978 0.104572214 0.013239862
000040 c9 e2 08 bc 27 f7 09 bd 81 ed ca 3c c9 8d 94 3d
       -0.008354851 -0.03368297 0.024771454 0.07253606
000050 22 73 e6 3c a0 e8 0a 3d fd 61 1d 3c 23 76 af bc
       0.028131071 0.033913255 0.009605882 -0.021418637
000060 8a e7 b9 bd 21 79 fb 3c 01 06 70 3d eb a6 94 bd
       -0.09077366 0.030697407 0.058599476 -0.072583996
000070 b6 25 04 3e ff ec 9f bd cf 31 a4 3d 91 0d b3 3c
       0.1290501 -0.07808875 0.08017313 0.021857055
000080 32 fd ba 3d de 4d 79 3d 71 ef d2 3d 78 bf b6 bc
       0.091303244 0.060865276 0.10299576 -0.022308096
000090 1a 91 12 3e 05 d5 96 3d 49 a1 82 3c c1 9a e2 3c
       0.14313164 0.07364849 0.015946047 0.027661683
0000a0 ce 03 d1 3d 92 94 81 3c 0f b5 e2 3c 5c bc 1d bc
       0.10205804 0.015817914 0.027674226 -0.009627428
0000b0 ff d4 b9 3c c5 e9 d2 3d 5d 75 84 bd 99 47 79 bc
       0.022684572 0.10298494 -0.06467698 -0.015214824
0000c0 2d 3c cd 3c 48 fe a0 3c cf c6 50 bd 68 05 66 bd
       0.025053108 0.0196525 -0.05097085 -0.0561575
0000d0 6e d3 13 bd 2b 9a 02 3d 30 e4 f3 3d 26 36 b2 bd
       -0.036090307 0.031885307 0.11908758 -0.08701734
0000e0 c2 2b fa 3d ef ca d1 bc 60 34 23 3d d5 7d 9e bc
       0.122153774 -0.025609462 0.03984487 -0.01934711
0000f0 8e 97 64 3d 60 33 0a 3d f0 d0 46 3d 89 eb 77 bb
       0.055808596 0.0337404 0.048539102 -0.00378296

action_head.weight f4 [200, 64]
000000 80 ea 85 ba 2c 5c a8 3c 18 df 94 bc 34 f1 89 bd
       -0.0010216981 0.020551763 -0.018172786 -0.06735459
000010 c0 ba a6 bd 30 f2 3f bd aa 3c b9 bc 87 3f f3 bd
       -0.081410885 -0.046861827 -0.022611935 -0.11877351
000020 4f 2e 3f bd 44 06 3c 3d 65 18 2b 3e 34 f4 51 bd
       -0.046675023 0.045904413 0.16708525 -0.05125828
000030 91 91 f7 bd 7d 30 8d 3d da 68 ad 3d 4e b1 1a bd
       -0.120883115 0.06894014 0.084672645 -0.037766747
000040 f9 1e 68 3d ef 78 98 bd 1f 8b 4d bc 97 09 34 3d
       0.056670163 -0.07444941 -0.012545376 0.043954458
000050 4e e0 90 3d f2 b5 a8 bd c5 d6 57 3d 08 a5 83 3c
       0.07074033 -0.08237828 0.052695055 0.016069904
000060 96 3a d7 3d 64 4a f4 bd 6b 2b cb bd d9 7a e0 3d
       0.10509221 -0.119282514 -0.09920391 0.10960931
000070 34 67 82 bd 31 36 03 be c8 2a ba 3d 0c 96 a0 3b
       -0.06367341 -0.12813641 0.09090191 0.0049006995
000080 71 e6 2f 3e 56 be 8d 3d 9b cf 75 3d 05 d0 55 bd
       0.1717775 0.06921069 0.06001244 -0.052200336
000090 c1 55 99 3d cf 2b 88 bd 41 5c b9 bd 8e 3b f6 3d
       0.074870594 -0.06648981 -0.09050799 0.12023078
0000a0 fa 27 cd 3d a2 ac e2 3d 26 1a af 3c b9 e6 b2 3d
       0.100173905 0.11068083 0.021374773 0.08735413
0000b0 98 7b fb 3c 94 b1 1c 3d c8 ac ec 3c 60 c2 9a bd
       0.030698583 0.03825529 0.028890982 -0.07556605
0000c0 e6 6e c4 bd a4 bd 7b bc 90 6d 9c bd 91 ae df bd
       -0.09591465 -0.015365038 -0.07638085 -0.10921968
0000d0 ad 5c b7 3d 37 f4 02 be dc 26 d6 3c 5a f3 40 3b
       0.089532234 -0.12788473 0.026141576 0.0029441924
0000e0 57 dd 63 bd 23 d4 f5 3c 14 61 f9 bd 36 87 27 bd
       -0.055631008 0.030008381 -0.12176719 -0.04090043
0000f0 17 77 c0 ba cf 81 f8 3b 9f 88 dd 3d 6b e0 d8 3d
       -0.0014683929 0.0075838338 0.10817074 0.10589679
000100 f1 a3 8a bc 94 8a 48 3d 40 d5 11 3d 3c 51 c2 3d
       -0.016923876 0.048960283 0.03560376 0.094881505
000110 3a 60 bc bd 1f 75 88 3d 78 91 6e 3d f4 b8 6d bd
       -0.09198041 0.06662964 0.0582442 -0.058037713
000120 a6 5a af bb d9 f6 94 3c 23 da 5f bd 88 be eb 3c
       -0.0053513823 0.018184112 -0.05465139 0.028777376
000130 86 2c 8e bd 45 d5 62 3d 7c 4b 9b bc 85 e4 40 bd
       -0.06942086 0.05537917 -0.018956892 -0.047092933
000140 7d 8f 8c bc 4b 59 a7 3d d9 38 a6 3d 08 f7 cc 3d
       -0.017158264 0.08171328 0.081163116 0.10008055
000150 a5 14 7d 3d 53 7f 0e 3c 5c b2 1c 3d 8f 20 4b 3d
       0.061787266 0.008697349 0.038256034 0.049591597
000160 a0 88 a2 3d 60 0c 00 be a0 eb 38 3d 8b 4a 90 3b
       0.079362154 -0.1250472 0.045146585 0.0044034175
000170 53 c0 2f bd ab 74 88 3d fa 9f a9 3d 81 bd a8 3c
       -0.042908024 0.06662878 0.08282466 0.020598175
000180 d7 17 29 bf 3c 95 23 bd 42 b3 a1 bb 22 92 67 3c
       -0.66052 -0.039937243 -0.0049346993 0.014133962
000190 bc 6d 38 bd d0 cc 0e 3d 19 e7 67 bc 80 84 13 bd
       -0.045026526 0.034863293 -0.014154219 -0.036015034
0001a0 bf 65 4b bd 18 8b 5d ba a9 e2 1c 3d 46 45 d5 bd
       -0.04965758 -0.00084512075 0.038302097 -0.104136035
0001b0 15 ad 6e bd eb cf b5 3d d5 3e ad bc 07 fe 0c 3d
       -0.058270533 0.08877548 -0.021148125 0.034421947
0001c0 c4 0a 0f 3d 34 56 ee 3c c8 b8 69 3d 4b 33 90 bd
       0.034922376 0.02909384 0.057060987 -0.07041033
0001d0 d6 48 30 3d ad af 68 3d cd ad 35 bc 58 7d 86 3c
       0.04303821 0.056808162 -0.011088801 0.01641719
0001e0 23 ff 1c 3c 40 90 9e 3d 60 c1 d5 3d 57 c2 16 3c
       0.009582314 0.07742357 0.10437274 0.009201608
0001f0 72 21 00 be a6 3f 23 3e 63 11 ad 3d d3 fc d3 bd
       -0.12512758 0.15942249 0.08450582 -0.10350957
000200 02 47 32 bd 21 f8 23 bc 6b 5b 51 3c 9d 4b d2 bb
       -0.04352475 -0.010007889 0.012778143 -0.006417705
000210 34 be 69 3c f2 d7 86 bd 5d 8d c9 3d e4 b4 5c 3d
       0.014266539 -0.06584157 0.09841416 0.05388345
000220 15 84 be 3d ad 2b 80 3d 6e 9c 39 bb c0 88 28 bd
       0.093025364 0.062583305 -0.0028322 -0.04114604
000230 83 f3 44 bd 37 7a 10 3d ba 9b 78 3d a1 3d 89 3c
       -0.048083793 0.035272803 0.060695387 0.01675302
000240 8c 4f e1 bd 9a ac ba bd 7b 01 b9 3c 31 8d 52 bd
       -0.110015005 -0.091149524 0.022583714 -0.051404182
000250 33 7f fc bd d3 31 dd 3c a3 88 8f bc a1 25 a0 3c
       -0.12328949 0.027001297 -0.017521208 0.019549193
000260 b1 4d 7a bc 14 ad e1 3d b9 12 c2 3c d7 5f 50 bc
       -0.015277312 0.1101934 0.023690568 -0.0127181625
000270 e9 88 00 bb 7b e8 03 be 7f 7d d8 bd 9f 63 85 bd
       -0.0019612855 -0.12881653 -0.105708115 -0.06513142
000280 b6 96 0c be 5d e3 c5 3d c7 37 3b b9 bf 45 b9 bd
       -0.13729367 0.09662507 -0.00017854488 -0.09046506
000290 7a 60 af bd f2 c5 7c 3d 33 fc 6b bd 98 8f f1 3c
       -0.08563323 0.061712213 -0.057613563 0.029487416
0002a0 ae 54 bb 3c a2 90 be 3d cb 97 bd bd e3 e0 b9 bc
       0.022867527 0.0930493 -0.09257468 -0.022690242
0002b0 b4 16 a7 3d 09 7f d1 3d 65 8c 02 3d cc bb 77 3d
       0.08158627 0.10229308 0.031872172 0.06048183
0002c0 a0 80 e4 bc 09 d1 c2 bd 34 e8 c1 bd eb 20 fb bd
       -0.027893364 -0.095125265 -0.09468117 -0.12262138
0002d0 c7 4a af bd 25 7d f9 bd 00 72 45 bd 8f 7d 86 bd
       -0.085591845 -0.121820726 -0.048204422 -0.06566917
0002e0 b7 59 36 bd 67 70 bd 3c e0 52 14 3c 01 09 9f 3d
       -0.044519152 0.023124887 0.009052962 0.07765389
0002f0 7d f9 ef bd 8c 02 b2 3d bf df fc 39 4f 79 34 bd
       -0.11717508 0.08691892 0.0004823189 -0.044061
000300 c9 bb b9 bd 15 4d 34 3d f1 a1 7e 3d 26 42 9e 3d
       -0.0906902 0.044018824 0.062166158 0.077274606
000310 04 6b 67 bd 8b ff b9 3d d4 a4 92 3d 75 38 38 bd
       -0.056498542 0.09081944 0.07160345 -0.044975717
000320 ed 4d cb bd 4a 45 eb bd 75 fa 9c 3d 00 04 7e bd
       -0.099269725 -0.11487825 0.076649584 -0.062015533
000330 6f 14 0e 3c 76 e2 67 bd 96 86 d2 bd 2e b6 3b bd
       0.008671864 -0.056612454 -0.102795765 -0.045828037
000340 a8 f5 c1 3d 78 cf 8e bd f3 5f 33 bd 72 5f b8 3d
       0.09470683 -0.06973165 -0.043792676 0.0900258
000350 71 54 5c bd a8 d8 9e bb 1e 1e 14 bd 07 f5 3f bc
       -0.053791467 -0.004847605 -0.036161534 -0.011716134
000360 f5 d6 43 3d 6e 78 b1 3d 74 78 81 3c a2 2c b9 3c
       0.04781242 0.08665548 0.015804507 0.02260429
000370 b0 f2 95 3d ec 0a 1d bc 27 8b 98 bd 8e 7c eb bd
       0.073216796 -0.0095851235 -0.07448416 -0.11498366
000380 c2 9c 0e bd e2 16 41 3d 72 90 47 3d 19 78 bc bd
       -0.034817465 0.047140963 0.04872174 -0.09202594
000390 18 34 2c 3d a2 88 d1 bd bf da 49 3d 10 f6 81 3c
       0.042041868 -0.10231139 0.04928088 0.015864402
0003a0 3a 06 58 3d 00 f1 d3 3d 68 5e 5d 3d 99 4a 13 3d
       0.052740313 0.103487015 0.05404511 0.035959814
0003b0 a6 11 2b 3d 36 ed 21 bc 4a a2 b7 3d d8 ee cb 3d
       0.041764878 -0.009883216 0.08966501 0.09957665
0003c0 90 b8 aa bc f8 0f b7 bd d8 dd da 3c f5 de cd 3d
       -0.02083996 -0.08938593 0.026717111 0.10052291
0003d0 44 c4 d7 3d b2 96 69 bd f9 de ab bd 63 dd 95 3d
       0.105354816 -0.05702848 -0.08392138 0.07317617
0003e0 af b7 9b bd 3f b9 a7 3d 6e 67 e7 3d b9 0c dd 3b
       -0.07603394 0.0818963 0.112990245 0.0067459014
0003f0 d1 51 cd 3a d8 aa bc 3c 88 c5 6d bc da 21 ff 3c
       0.0015664642 0.023030683 -0.014512427 0.031144071

action_head.bias f4 [200]
000000 1c 8f 25 be cc 94 be 3b 12 7a 77 bb 48 75 2b be
       -0.16167873 0.005816078 -0.0037761969 -0.16743958
000010 b1 1a 94 3c 71 0e b9 bd 73 c7 3e bd cb f9 1c 3d
       0.018079134 -0.090359576 -0.04657693 0.03832416
000020 75 1f 47 be 04 67 88 bd 9e a6 38 be c8 57 83 3c
       -0.19445594 -0.06660274 -0.1803231 0.016033068
000030 47 2b 8e 3d 90 e3 24 be ea cc 0c be 53 0e 5c bd
       0.06941848 -0.16102433 -0.13750044 -0.0537246
000040 3b 5e c6 3d 5c 36 be 3c 1b 27 f5 bd 5f db 1a be
       0.09685942 0.02321928 -0.119703494 -0.15122746
000050 ac 91 c8 bd 37 ad 39 3d 15 0e 17 3d dd 5c 1f be
       -0.0979341 0.045331206 0.036878664 -0.15562768
000060 0b f5 c3 bc 79 f3 98 3c 4f 56 a3 3d 8a 35 cc 3c
       -0.023920557 0.018670784 0.079754464 0.024927873
000070 d8 28 61 bd 95 d9 d4 bd 1e 6d 46 bc 74 d0 37 bd
       -0.054970592 -0.10393063 -0.0121109765 -0.04487653
000080 ca d7 24 be 9b 9b 18 bd 0a 07 29 3d a6 e7 fe bd
       -0.16097942 -0.037257772 0.04126648 -0.12446527
000090 91 59 13 be b0 13 ff bd 4b aa 00 be 4e d1 25 be
       -0.14389636 -0.12454927 -0.12564962 -0.16193125
0000a0 57 6e 0d be d9 0b 1c 3d 4f f3 32 be 81 4b b1 bd
       -0.13811623 0.038097236 -0.17475627 -0.08656979
0000b0 89 96 f7 bc 48 4e 78 3d f0 2c 1d 39 95 46 5a 3b
       -0.030223148 0.06062153 0.00014989427 0.003330623
0000c0 c7 71 5f 3d c3 8d b3 bd cd d5 78 3c b6 93 bd bd
       0.054551866 -0.08767273 0.015187693 -0.09256689
0000d0 e6 b4 93 bd 09 ba 77 3d 98 08 dd 3a c8 58 46 3d
       -0.07212238 0.06048015 0.0016863523 0.048424512
0000e0 e0 6e 9d 3c cf b6 8e bd e7 18 31 3d ac d1 12 bd
       0.019217908 -0.06968462 0.04323664 -0.03584449
0000f0 62 fe 24 3d 8a 5d 3c be bb ec 0b be 27 c4 9a 3c
       0.04028166 -0.18395057 -0.13664524 0.01889236
000100 c1 35 c3 bd 9d 5e 17 be af a5 df bb 12 02 15 be
       -0.09531737 -0.14782186 -0.006825171 -0.14551571
000110 04 f4 53 bd 2b f0 62 3d 09 88 e7 bd 7c 12 ee bc
       -0.051746383 0.055404823 -0.113052435 -0.029061548
000120 bf 36 8e bd 20 a5 fc bc 1d 71 b6 bd cc 1c 7a bd
       -0.06944036 -0.030840456 -0.089082934 -0.06106262
000130 52 4a 93 bb 28 78 30 be c0 a6 3a be 7c e5 c1 bd
       -0.0044949437 -0.17233336 -0.18227673 -0.09467599
000140 55 07 96 bc 81 88 c0 3c bb 54 3e be ea 1b 0d be
       -0.018314043 0.02350259 -0.1858701 -0.1378018
000150 02 32 07 be 1c c6 ac bd 58 94 9e bd 47 f4 e1 bd
       -0.1320267 -0.08436224 -0.07743138 -0.1103292
000160 d1 b9 b2 3d c5 37 1a bd c3 55 31 be 0a c1 0c be
       0.08726848 -0.037650842 -0.17317872 -0.13745514
000170 95 6f 30 3d 88 89 c0 bb 42 a5 c4 3d 3e dd 68 3d
       0.043075163 -0.00587577 0.09601833 0.056851618
000180 2f 7b e4 bd a6 8c 4b bd 4c 90 96 bd c1 f7 03 be
       -0.11156308 -0.04969468 -0.07351741 -0.1288748
000190 23 92 29 3d 9f ff f0 bc 57 ce cd bd 4b a4 30 be
       0.041399132 -0.029418765 -0.10049122 -0.17250173
0001a0 95 1a 63 bd 5f 9d 51 bb a1 a5 8d 3b ba 05 07 be
       -0.055445272 -0.003198467 0.004322723 -0.13185778
0001b0 39 02 28 be 4e f1 af bd 00 3d 9d bd 1b d9 8d bd
       -0.16407098 -0.08590947 -0.076776505 -0.06926175
0001c0 ef 5e 13 be 7d 75 c0 b9 5a e8 e7 bd 1d 25 94 3d
       -0.14391683 -0.0003670863 -0.113236144 0.07233641
0001d0 3a bf 16 bd a1 f1 95 3d 99 b1 3a 3d a1 1b 8e ba
       -0.03680346 0.07321478 0.045579527 -0.0010841974
0001e0 01 19 d1 3c ad 15 9b 3d b3 28 68 3c 66 81 46 bd
       0.025524618 0.07572494 0.01416986 -0.048463248
0001f0 bc 33 13 be 14 57 b0 3b 12 ec fe 3c 93 1d 67 3d
       -0.14375204 0.0053814743 0.031118426 0.05642469
000200 e0 f8 2c be 0e 8a 36 3d 5e 63 87 3d 8f 17 40 3d
       -0.16891813 0.044565253 0.0661075 0.046897467
000210 0e 13 00 bd 61 21 1b bd 12 bb fa ba 88 56 56 be
       -0.031268172 -0.03787363 -0.0019129238 -0.20931447
000220 67 78 1b be 42 14 17 be 0c 24 a7 bc 04 49 85 bd
       -0.15182649 -0.14753821 -0.02040293 -0.06508067
000230 9a d0 e4 3c d6 04 ca bd 3a 6d a1 3b 56 c2 f0 bd
       0.0279315 -0.09864204 0.004926351 -0.11755817
000240 a4 ea b6 3c a7 24 6e 3c 87 2d 2e 3d 37 19 2c be
       0.022328682 0.014535106 0.042523887 -0.16806494
000250 62 85 0c bd 00 d9 2c bd 94 13 03 be 5d 57 5e bc
       -0.03430689 -0.042199135 -0.12800437 -0.013570634
000260 6a 07 ae 3d ed fa e9 bd 23 b5 5b 3d 88 3e 3a bb
       0.08497508 -0.114248134 0.053639542 -0.002841862
000270 9a 23 e7 bc 02 1c e2 bd 55 73 bd 3c ae 8f d5 bd
       -0.028215218 -0.11040498 0.023126284 -0.10427795
000280 86 fa 6f bd 22 fd f3 bc d3 8b 19 bd 06 65 3c be
       -0.058588527 -0.029783789 -0.037486862 -0.18397912
000290 f1 a1 a3 bd c2 ff 9a 3d 4e e1 d1 bd 8d 72 a4 bd
       -0.07989872 0.07568313 -0.102480516 -0.08029661
0002a0 04 0a b5 bc 7f 07 b1 3c 05 97 82 bc db 8e 72 bd
       -0.022099502 0.02161002 -0.015941152 -0.05921827
0002b0 8c 89 9a bc 8f fc b0 bd b2 a4 80 bd b9 73 e4 bd
       -0.018864416 -0.08641922 -0.06281413 -0.11154885
0002c0 28 9b 20 3c d3 60 26 be e2 5a 3a bd 00 97 97 bd
       0.009802617 -0.16247873 -0.04549683 -0.07401848
0002d0 04 5a ba bd 82 db 27 bc 4c 62 50 3d 90 02 d6 bd
       -0.090992 -0.010245206 0.050874993 -0.104497075
0002e0 c8 7f 21 3d 54 9e bf 3d 71 37 06 be 28 b7 94 bd
       0.039428502 0.093563706 -0.13107087 -0.07261497
0002f0 83 9c 10 be 1a 4a f4 3c 7d 0d fb bd d2 fa 4f 3d
       -0.14122204 0.02982049 -0.12258432 0.05077631
000300 4f c5 a3 bd 0e 4f 35 3d ad 4f fb 3c 5b 61 f4 bd
       -0.07996618 0.044264846 0.03067764 -0.119326316
000310 b5 0e db 3c 26 af 25 bd 31 e2 8b bd a5 45 33 bd
       0.026740411 -0.040450238 -0.06830252 -0.04376759

value_head.weight f4 [1, 64]
000000 6b 09 af bc ea f9 0d 3e 48 50 23 3e 8b c4 82 ba
       -0.021366796 0.13864866 0.15948594 -0.0009976787
000010 24 34 21 3e 66 3e ad bd 1b a9 bf 3d aa 06 fc 3d
       0.15742546 -0.08459167 0.09358426 0.123059586
000020 54 6b 9e bd 01 8e b2 bd 76 5e 5e 3d 88 ce 1e bd
       -0.07735315 -0.08718491 0.054289304 -0.038771182
000030 89 9e 21 3d 34 20 10 3e 46 d6 3b 3d 2c 83 48 3d
       0.03945783 0.14074785 0.045858644 0.04895322
000040 f7 93 7c 3d 29 b6 3a bd 31 5c 90 bd c2 0c 03 bd
       0.061664548 -0.045583878 -0.07048834 -0.03199459
000050 fc 92 05 bb 02 13 c0 3d b4 a6 21 3d 96 01 fe 3d
       -0.00203818 0.093786255 0.03946562 0.12402646
000060 a0 c8 d9 bc 55 d1 d5 bd 9d 10 33 3d 7c e4 d6 bd
       -0.026584923 -0.104403175 0.043717016 -0.10492799
000070 03 7a 0f 3e 75 0c 20 bd 36 a7 88 3d ae 5b 53 bd
       0.14011388 -0.03907438 0.06672518 -0.051601104
000080 43 1e f2 3d d1 ef 95 bd be ec 07 3e e2 f5 82 3d
       0.11822178 -0.07321132 0.13273904 0.06394555
000090 b0 b2 17 3e 3f ec 8c bd e9 fc 78 3d 58 96 08 3d
       0.14814258 -0.06880998 0.06078807 0.033346504
0000a0 f3 40 89 3d ad 8b 9e bd 8c 37 eb bd 83 44 5e bc
       0.06701841 -0.07741485 -0.11485204 -0.013566139
0000b0 47 7f 16 3e 24 d0 22 3d f1 79 1c bb b5 4b a4 3d
       0.1469699 0.03974928 -0.0023876394 0.080222525
0000c0 c0 4d fc bd 80 27 df bd 58 07 9e 3d 8b 54 99 bd
       -0.12319517 -0.10896206 0.077162445 -0.074868284
0000d0 6d 9d f4 bd 3a 8d 53 bd b7 4d b3 3d fd 38 57 bd
       -0.11944089 -0.051648356 0.08755057 -0.052544583
0000e0 a5 a3 ed 3c bd e6 ad bd cc 4b 5f 3d 29 4e d6 3d
       0.029008696 -0.084912755 0.054515645 0.104641266
0000f0 a0 10 e6 bd 3f 43 a0 3d 76 7d a0 3d f4 99 aa 3d
       -0.1123364 0.07825326 0.0783643 0.083301455
