latest.pth (torch, 451023 bytes, 7 tensors)

fc1.weight f4 [128, 800]
00000000: 831c 9d3c 5297 da3b a916 883c ffbe 903c
00000010: e24a 9dba 4112 b0bc 7249 b1bc 5b9b 57bc
00000020: 29f7 aabc edce 16bc d14f 0d3d fb74 b7bc
00000030: 9056 10bd 329c 24bc e18a 943c 73e7 b93c
00000040: 01b4 3f3c 2320 a53b 51bb 093d dc72 82bc
00000050: f567 8a3a bec1 acba ea05 f83c b444 07bc
00000060: bc66 b33c 33ba 3dbc af40 a13c e03b b33b
00000070: fc3f 1cbd 43a5 da3c e7e6 9a3c 5dba 1cbd
00000080: ac56 203d c35c 10bc 7b45 b83c faff 493c
00000090: bdd5 9c3c 35b2 0e3c 8fe9 29bc 67f7 33bd
000000a0: ffa5 0dbd 683f 8b3c fd78 4b3c ca04 f5bc
000000b0: 5d85 dc3c a89e 1bbd 972a 45bc e679 923c
000000c0: 24ee 0f3c ffe5 203a 52aa 17bd 2c9f be3c
000000d0: 5a5b f43c 85a6 07bd 8df3 433c 4818 54bc
000000e0: fd04 ea3c 3ade fd3b 4de8 45bc e164 0ebd
000000f0: e11f efbc 3c08 0cbd 491b 163b a85a 1e3d
00000100: d57c 3dbb a032 8b3a bacc 603c 59dd 693c
00000110: 2e2f c3bc 3b2d 61bc 9a64 243c 6322 21bd
00000120: 3dbe 6e3b be7f 95bc 5714 2c3a e843 8d3c
00000130: a73f 973b e748 a1bc 4cb3 6b3c 73dd 18bb
00000140: 15c2 93bb 0e8e d1bb 8aaa 013c b369 06bc
00000150: 34dc 343c fb05 adbb cf6d debc 9158 bd3c
00000160: e4c6 86bc 8f02 eebc 24c4 f93c 1773 c13c
00000170: 25b2 f4bc 0277 8b3c fa2f c0bc 324c a33b
00000180: 7f94 34bd 5bb5 34bb 0cac 2f3a 5602 383c
00000190: ca3d 803b 244c 00bd b531 68bc df00 0fbc
000001a0: 4735 943c 9bdc e1bc 1312 77bc 2d4d a3bc
000001b0: decd de3b cc90 5cbc 0e9a 2fbc 37ee 70bc
000001c0: 49fb e83c 3ac9 673c 61f7 d9bc 0dd3 79bc
000001d0: 45b3 32bd c0ed b0bc aae0 b33b 0dff e53c
000001e0: 6d9f 21bc eaae 6bbc 3bfb 203c c9ef 7a3c
000001f0: 0c53 99bc c6e3 abbc 29ad 9c3c 85e6 5dbb
00000200: 0f53 e73c 7ac2 9d3c ff18 4e3c 160f bcbc
00000210: 95ec 08bd a10c 9ebc 2fc7 97bb 75b2 583c
00000220: 9dd7 15bc 9f19 f4bc 8d39 a2bc 8187 d9bc
00000230: e818 66bc 95c5 22bd 6ff5 3f3c 35c4 d13b
00000240: 1bc7 343c 2939 e03c 37d9 933b 181a e9bb
00000250: 9002 a43b 207e 23bd 02df 35bc 6c36 28bd
00000260: 6e0b c9bc 56fa 52bc e87f ffbc 2957 2abb
00000270: 4c6f 96bc 2e91 53bc 74ba 2db9 df2b 7dbc
00000280: 3a95 9d3c 2692 a13c 8c50 c43c 092b 753b
00000290: 6052 b43c 10b1 22bb 741d b83a 0db3 bf3b
000002a0: 2513 cf3c 8dac 5bb9 5332 85bc 2abd f7bc
000002b0: e428 ddbc ff37 24bc e5bb f8bc c714 93bc
000002c0: fb5d 72bc d03e f3bc 65f5 f83b c386 f23c
000002d0: 6f0f ecbb d5bf 21bd 8d5e 3a3c 30a3 553b
000002e0: d7d6 0cbc e2ec 983b 4c8c 5ebc e62a e0ba
000002f0: d56d 13bd 9889 66bc 251c 553c 7c48 e03c
00000300: 7acc 023d 9b6e 12bd 2224 593c bc5e 45bd
00000310: 77a1 98bc 60fc 38bc 146e 60bc 57b1 103d
00000320: eb2c ee3c 8443 29bd 7f12 68bc b5f2 c03c
00000330: fc12 19bd 1eb3 0d3b a72c c43c a2af 8cbc
00000340: 9172 30bb 5cad d03b 2b19 14bd 7658 2cbd
00000350: 5c1f 60bc c098 c73c 39f5 863c c416 e23c
00000360: 96c4 b9bc c534 ffbc 049e 8ebc f035 02bc
00000370: 9675 3c3b a718 e03c b2d0 aa3c 7f17 a93c
00000380: 26f1 23bd c53b 323c 9aa7 323c 5c78 663c
00000390: b0f9 aa3b df48 61bb 27a1 d1bc c36b 43bc
000003a0: 22f8 be3b 9a2d dd39 5847 d03c 8e70 a7ba
000003b0: 1b95 33bc ff18 12bd 79e3 6fbc 2cda 253d
000003c0: 90b0 b53a 45f5 27bc 8be9 543c 2559 37bb
000003d0: af60 a63c 9914 9dbc 8fa7 1c3c 6f19 183c
000003e0: 76ca a73c 6cba fdbc 7438 1abc 0690 523c
000003f0: 410a 633c 3215 c93b ad14 1bbb 9594 20bd
0.019178635 0.006670871 0.016612368 0.017669199 -0.0012000466 -0.02149308 -0.021641467 -0.013159598
-0.020869808 -0.009204608 0.034499947 -0.022394648 -0.035238802 -0.0100470055 0.018132629 0.022693371
0.011700631 0.0050392314 0.033625904 -0.01592391 0.0010559546 -0.0013180298 0.030276258 -0.008256126
0.021899574 -0.011580038 0.019684164 0.005469784 -0.038146958 0.026690131 0.018908931 -0.038263667
0.039145157 -0.008811179 0.022494068 0.012329096 0.019144887 0.00870948 -0.010370626 -0.043937113
-0.034582134 0.016998008 0.012418983 -0.02990951 0.026919061 -0.037993103 -0.01203408 0.017880391
0.0087848045 0.0006137788 -0.037027664 0.023269258 0.029828716 -0.03311779 0.0119599225 -0.012945242
0.028566832 0.0077474387 -0.012079311 -0.034764174 -0.029190006 -0.03418754 0.0022904447 0.038660675
-0.0028913517 0.0010619946 0.013720686 0.014273965 -0.023826208 -0.013743694 0.010033751 -0.039339434
0.0036429309 -0.018249389 0.000656431 0.017244294 0.0046157422 -0.019688083 0.014386009 -0.0023325353
-0.0045092204 -0.006395108 0.007914195 -0.008203912 0.011038829 -0.005280254 -0.02715197 0.02311352
-0.01645226 -0.029053954 0.030489035 0.02361445 -0.029870102 0.01702452 -0.023460377 0.0049834484
-0.04408693 -0.0027573917 0.0006701357 0.011231026 0.003913616 -0.031322613 -0.014172007 -0.008728235
0.01809181 -0.027571013 -0.015079993 -0.019934261 0.0067994436 -0.013462257 -0.010717882 -0.014705232
0.028440135 0.014147097 -0.026607217 -0.015248072 -0.043627996 -0.021597743 0.0054894285 0.02807572
-0.00986467 -0.0143849645 0.009825523 0.015315958 -0.018716358 -0.020982634 0.019125538 -0.0033859324
0.028237848 0.019257773 0.012579202 -0.022956412 -0.033428747 -0.019293131 -0.004631899 0.013226141
-0.0091456445 -0.029797373 -0.019802833 -0.026553871 -0.014044024 -0.03973921 0.011716231 0.0064015635
0.011033799 0.027371006 0.004511978 -0.0071137063 0.0050051883 -0.039915204 -0.0111005325 -0.041067526
-0.024541583 -0.012877068 -0.03118892 -0.0025991893 -0.018363617 -0.0129130315 -0.00016568025 -0.015452354
0.019236196 0.01972301 0.023964189 0.0037409684 0.022011936 -0.0024824776 0.0014046864 0.005850202
0.025277684 -0.00020949748 -0.016259348 -0.030241568 -0.026997037 -0.010023116 -0.030363033 -0.017954243
-0.0147929145 -0.029693037 0.0075976127 0.029605275 -0.0072039883 -0.039489586 0.011375082 0.0032598488
-0.008596144 0.0046669105 -0.013583254 -0.0017102628 -0.035993416 -0.014070891 0.013007198 0.027378313
0.031933285 -0.035750013 0.013253244 -0.04818605 -0.01863168 -0.01129064 -0.01369812 0.035325374
0.029074153 -0.041324154 -0.014164566 0.023553232 -0.03737162 0.0021621655 0.023947073 -0.017173592
-0.0026923756 0.0063683223 -0.036156815 -0.04207655 -0.013679352 0.024364829 0.016474353 0.027598746
-0.022676747 -0.031153092 -0.017409332 -0.00794743 0.002875661 0.027355505 0.020851467 0.020641087
-0.0400249 0.010878508 0.010904217 0.014066782 0.0052177534 -0.003437571 -0.025589539 -0.011927548
0.0058279196 0.0004218638 0.025424644 -0.0012774633 -0.0109608425 -0.03566837 -0.014641636 0.040491268
0.0013861824 -0.010251348 0.012995134 -0.0027976718 0.020309774 -0.01917486 0.009561433 0.009283408
0.020482283 -0.030972682 -0.009412874 0.012851721 0.013857425 0.00613656 -0.0023663447 -0.0392042

fc1.bias f4 [128]
00000000: 6f93 763c 08a3 1a3d ae09 243d c48d 963c
00000010: c89c babc f8b0 b6bc 4837 303d 7df7 783a
00000020: fd9b 3d3d 9742 253d a16b 2ebd 8555 f33c
00000030: 719e 813d 251a 273c 55d9 1d3d 463a 4839
00000040: 854e 173d 5dfd 843d 4bc0 313d 177a 683d
00000050: b728 473d 6d8a 303d c654 00bc c2bc 3e3d
00000060: b756 aabb 46d0 2a3d 857d c8bc 644c 853d
00000070: 00c2 09bd f58d 163d 1f01 2a3d d9bb 273d
00000080: 43e4 24bd 7cfb db3c ff24 213d 1b75 853d
00000090: ec06 f5bc b620 263d dce3 0b3c 8c3e 5b3d
000000a0: bf44 21bd 76bb 1b3d bc56 88bc 504c 92bc
000000b0: 6ff8 803d b415 423d fde4 f33c 92c1 663c
000000c0: b908 513c c04e 3b3c a345 cbbc e33e c83c
000000d0: 535a c13c 23d7 263d 5e94 4e3d 3543 b3bb
000000e0: 0f45 a6bc 48d5 0d3a 3ba4 323d 3a23 ca3c
000000f0: b63b 033b 477a 49bc f7fe 233d 9d8f 873c
00000100: f379 a3bc 88e9 4f3d de91 6eba e874 173d
00000110: 57a2 973c 5c74 ffbb d87b 843d ea88 6d3d
00000120: a2d1 aa3c cd99 653d b734 afba c933 483d
00000130: 9d5b c43b 77b2 683d 141f fe3c 6980 693d
00000140: 7d64 413d 5639 263d d5d2 f63b bb42 fbbc
00000150: 4f09 de3b 2496 f93c 57d2 093c 895a e83c
00000160: 8c2b 16bd 6769 6f3c 22d9 4bbc de2c 0cbb
00000170: 4771 a8bb 6f05 103d ce5d 09bd 8c66 cf3c
00000180: 389e 6e3d b679 2aba cdbe 863b 3ab9 153b
00000190: 98a8 bc3c d71b a83c 134a 84bb 9bf0 973c
000001a0: adda ea3c 48fe aebc d68f cd3c 48d2 373d
000001b0: e441 6a3d c72e 633c 8327 073d 111c f13c
000001c0: 1203 09bd 565a 973c 8bfe c73b 2bbc 5e3d
000001d0: 6562 a93c c25d aebb 08ae 55bb c5b3 9a3c
000001e0: bbc6 e1ba fc47 c0bb bdb4 d03b af25 ff3c
000001f0: 3911 e6bb 6be1 51bb f60f bb3c d077 8a3c
0.015049799 0.037753135 0.040048294 0.018378146 -0.022779837 -0.022301182 0.04302147 0.0009497328
0.04629134 0.04034671 -0.04258311 0.029703865 0.063290484 0.010199104 0.038537342 0.00019095195
0.036940116 0.06493638 0.043396275 0.05675706 0.048622813 0.043100763 -0.007832712 0.046566732
-0.0051983255 0.04170253 -0.024473915 0.06508711 -0.03363228 0.036756475 0.041504975 0.04095063
-0.04025675 0.026853316 0.039341923 0.06516477 -0.029910527 0.04055854 0.008538213 0.053526446
-0.039372202 0.038020574 -0.01664292 -0.017858654 0.06297385 0.04738398 0.029772276 0.014084237
0.012758427 0.01143235 -0.024813479 0.02444405 0.02360264 0.040732514 0.050434463 -0.005470658
-0.020296602 0.00054105045 0.043613654 0.024675 0.0020024604 -0.01229722 0.040038075 0.016547972
-0.01995561 0.050759822 -0.00091007154 0.036976725 0.018510027 -0.0077958535 0.06468934 0.0579919
0.020851914 0.05605488 -0.0013367151 0.04887751 0.0059923665 0.056810822 0.031020679 0.057007227
0.047214974 0.040582024 0.0075324574 -0.030671468 0.006776012 0.0304671 0.008411965 0.028363483
-0.036662623 0.014612532 -0.012441905 -0.0021389048 -0.005140457 0.035161432 -0.033536725 0.025317453
0.058256358 -0.00065031217 0.0041121007 0.0022846 0.02302961 0.020521088 -0.0040371506 0.018547347
0.028668726 -0.021361485 0.025093 0.044878274 0.057191744 0.013866133 0.032996666 0.029432328
-0.033450194 0.018475693 0.006103342 0.05437867 0.020676801 -0.0053212354 -0.0032604951 0.018884549
-0.0017225364 -0.005867956 0.006369202 0.031145899 -0.007021096 -0.0032025229 0.02283476 0.016902834

fc2.weight f4 [64, 128]
00000000: 7658 bf3d 3b14 ae3d 69a4 b13d 6f1d c5bb
00000010: 4afe 383d a664 803c 5543 923d ddee f33c
00000020: e99c 33ba bea0 cb3b 7343 b1bc a37a 08bd
00000030: 012b c93d 9e68 cc3d ea02 80bd 6734 1d3d
00000040: b8aa a83d 274a a93d e05b a53d f668 b83d
00000050: 319c baba a66d a43d 35f5 303c ddf5 c33d
00000060: 9fd3 a83d 84dd febc 7406 45bd 595b 46bd
00000070: 80b0 4b3c 56c2 8f3c 2fe0 b4bc d1ab ef3d
00000080: a9ea a8bd b77b 803d 8647 7ebd 052f 263d
00000090: 2982 3dbd 3618 e43b 82aa e03b 5c77 0839
000000a0: 71e3 533d 64ab d43d ec5b a7bd 5cba 703d
000000b0: 5181 c8bc 0282 7b3d 1d72 273d a33d 863d
000000c0: a1bc 933d ebf4 d03d ce1e 01bd 170e 273d
000000d0: 6179 dfbc 47a9 c83d 15ff 5abc c389 29bc
000000e0: 2d9f 8f3d 29a3 5d3c 1c81 3b3d f36e 4a3d
000000f0: a4b0 053d d318 d03b 4b2f b43d 467a 98bd
00000100: 9c60 5fbb 0149 c53d 1a6a bf3d 4064 923c
00000110: 02a7 cbbc 86b2 da3d 598d 6cbd 6281 f63d
00000120: e505 1d3d 355a c43d 6e7f 183d dd8f 2e3d
00000130: 9bf0 c73d db51 d63c e770 fa3d 618b b5bc
00000140: 7759 423d 88b7 1b3c 3a9b 7c3d d570 9c3d
00000150: 010e 73bc bbe5 e9bb 994b db3b d1b0 7b3d
00000160: c6bf 71bd 31a8 063d ce2c 8ebd f107 f83d
00000170: 4515 6dbd db16 753d 7cbf 513c fb6d 8a3d
00000180: e791 36bd 148f ae3d dcb1 263d 0334 5a3d
00000190: b315 633d 1419 143d 2f41 a0bb af8d ed3d
000001a0: e0b7 613d f21c 8c3b 78c2 af3d b289 a83d
000001b0: dcb8 e53d 07d1 82bd 5c27 b03b 15ba f73d
000001c0: a5ac bc3d a4c7 f53d 9ade a03d e4d3 d13d
000001d0: 7532 953c 8b3c a23c 79af e23c 3fa0 7b3b
000001e0: 1133 2dbd a245 71bd eab0 dcbc 27c3 d7bc
000001f0: 94e4 dc3c 16e6 9d3c c7fc 09bd dd07 053c
00000200: 8a5a 31bd 5e16 50bd d9d7 853d 66a3 503c
00000210: 8284 55bd 897a 4d3d 9fe8 ae3d a19a 863d
00000220: f72b 8b3d eb03 4f3d 397c e0bb 7360 bebc
00000230: 27c1 9d3d 59d7 7fbd 9221 933d 3627 013d
00000240: 54d5 c2bc 2a23 07bd 3c81 afbc 2c97 51bd
00000250: a846 d93b a9d0 a4bc 04e3 f83b a2d3 eb3c
00000260: 6831 9c3d 9b3f 4b3d 23fe ab3d 1769 cfbc
00000270: f072 5f3d 6692 9cbc 3ff3 38bc c421 b3bc
00000280: 8d9a b5bc 86dd b4bd 6dec a93d cabf 5c3d
00000290: 3f57 aebd 6c08 703d 22e7 503c 5cf5 1f3d
000002a0: 9fbd 923d ca89 70bd 4aac 83bc 3838 a53d
000002b0: 44e7 aabc dc67 34bd f2ba d4bc fbfe 933d
000002c0: a565 18bd a532 b0bc 1d61 623d 8701 d7bc
000002d0: 4d24 403d 7bb8 b3bc c754 91bd 21a9 8abd
000002e0: 06a4 703d b0fc db3c c289 eb3b baa8 df3c
000002f0: dd97 4ebc b9d2 333c a12a 183d 2010 2fbd
00000300: 412c 7ebd d130 343d d0b8 69bc c0d1 8abd
00000310: 8f78 ff3c 9978 2e3d 08ff cc3c 45b1 c5bc
00000320: 312d 8b3d 5de9 1dbd 5b49 39bd da2e 6b3d
00000330: e6d0 bebc b179 e6bb f3d2 8cbc e834 9f3c
00000340: f0ce b3bd a1c3 71bd 740c 84bc a978 8fbc
00000350: e4e6 e23c ea6d 2d3d bd09 a8bd 27cc 94bc
00000360: 4aaa 9d3d b5d9 48bd 2b2d 39bd 4192 b4bc
00000370: 695b b13d a8ce 09bd 1392 a1bd c3bf a83d
00000380: 174f 8f3d c610 cb3b 443a 6abd 3b0e 1e3d
00000390: fbbe cfba aa11 923d 8cb0 393d d7d4 74bd
000003a0: 7543 753d da98 ce3b 5be5 72bd 0b8c 02bc
000003b0: 21d1 bd3c 87e4 17bd b331 84bd 49f8 bcbb
000003c0: 9777 7cbd 87ea 7cbd 5714 1f3c aaff 42bd
000003d0: 901c 013d 1ad1 93bd c6f2 af3d fba0 b7bd
000003e0: a9fe 80bd d647 403d dcc1 9abd 7128 843c
000003f0: a9ca 55bd e284 aebd 3dc9 90bc b536 c2bc
0.093430445 0.084999524 0.08673937 -0.0060154716 0.045164384 0.015672993 0.07141749 0.029776985
-0.00068516895 0.0062142303 -0.021638608 -0.03332008 0.098226555 0.09980892 -0.06250556 0.038380053
0.08235687 0.082660966 0.080741644 0.09004395 -0.0014237222 0.08028726 0.010800649 0.09568379
0.082434885 -0.031111486 -0.048101857 -0.04842696 0.012432218 0.017548721 -0.022079555 0.11702693
-0.08247883 0.06273597 -0.06207993 0.040572185 -0.04626671 0.006960894 0.0068562636 0.00013014436
0.051730577 0.10384253 -0.081718296 0.058771476 -0.024475725 0.061403282 0.04088031 0.06554725
0.072137125 0.102029644 -0.03152352 0.04078492 -0.027279558 0.09797912 -0.01336648 -0.010347786
0.07012782 0.01352767 0.045777425 0.049422216 0.03263916 0.0063506155 0.08798083 -0.07445197
-0.0034084683 0.09633065 0.09346409 0.017870069 -0.024859909 0.10678582 -0.057751987 0.120363966
0.0383357 0.09587518 0.0372309 0.042617667 0.09762689 0.026162079 0.12228566 -0.022161188
0.0474486 0.0095042065 0.061671473 0.076387085 -0.014834882 -0.0071379817 0.0066923616 0.061447922
-0.05902078 0.032875244 -0.069421396 0.1211089 -0.057881612 0.05983625 0.012802001 0.06759258
-0.044572737 0.08523384 0.040696964 0.05327226 0.055440616 0.03615673 -0.004890583 0.115992896
0.055106997 0.0042759115 0.08582014 0.08229388 0.112169 -0.06387525 0.0053757858 0.12096039
0.09212617 0.12000969 0.07854958 0.10245493 0.018212536 0.01980426 0.027671563 0.0038395075
-0.04228503 -0.058904298 -0.026939828 -0.026338173 0.026964463 0.019274753 -0.033688333 0.0081195505
-0.043299235 -0.05080258 0.0653531 0.01273427 -0.052128322 0.050165687 0.08540463 0.06572462
0.06795495 0.050540846 -0.006850746 -0.02323935 0.077028565 -0.06246123 0.071841374 0.031531535
-0.023783363 -0.03299252 -0.021423928 -0.05116956 0.0066307373 -0.020119028 0.0075954217 0.028787438
0.07626611 0.049621206 0.08398082 -0.025318665 0.054552972 -0.019112777 -0.011288463 -0.021866687
-0.022168422 -0.08831315 0.08297048 0.05389384 -0.085127346 0.05860178 0.012750419 0.039052352
0.071650736 -0.058725156 -0.016073365 0.080673635 -0.02086223 -0.04404436 -0.025968049 0.07226368
-0.03720631 -0.021508524 0.055268396 -0.026245845 0.04690962 -0.021938553 -0.07096248 -0.0677054
0.058750175 0.02685389 0.007188053 0.027302135 -0.012609449 0.010975533 0.03715003 -0.042739987
-0.062053923 0.043991867 -0.014265254 -0.06778288 0.031185417 0.04259548 0.025023952 -0.02413238
0.06795729 -0.03855263 -0.045235973 0.057417728 -0.02329297 -0.0070335497 -0.017190432 0.019434407
-0.087797046 -0.059024457 -0.01611922 -0.01751359 0.027697988 0.04234115 -0.082049824 -0.018163754
0.07698496 -0.049035747 -0.04520909 -0.022042396 0.08660013 -0.03364435 -0.078891896 0.08239701
0.06997507 0.006197068 -0.057184473 0.03858779 -0.0015849763 0.071322754 0.045334384 -0.059773292
0.059878785 0.0063048424 -0.05930076 -0.007967959 0.02317101 -0.037083175 -0.06454792 -0.0057669026
-0.061637487 -0.0617471 0.009709439 -0.0476071 0.03152138 -0.07217617 0.08591227 -0.089662515
-0.062985726 0.046943508 -0.07556507 0.016132565 -0.052195225 -0.08521439 -0.017674083 -0.023707727

fc2.bias f4 [64]
00000000: b9a2 2b3d 0765 92bd eae1 2e3d 4841 943d
00000010: a509 17bd 9048 6abd 3a30 1c3d 79db 983d
00000020: 3725 073d d854 bbbc 7f4b 96bd 2280 8a3d
00000030: baac 86bc 6a5f ad3d 1462 66bc a394 b8bd
00000040: ad68 813d 17cc a63d 2117 6fbc faf3 87bc
00000050: 0561 aa3c 7bdf 85bd d23a 013d da41 3f3c
00000060: 06e9 49bd 2a6b 423b 31ce fd3b 1c21 dd3d
00000070: 3c22 8b3c fc57 adbc f488 cd3d 91a4 b4bd
00000080: 862e a83c a494 973d cf6e 7ebc b038 eabc
00000090: a1cb dd3d e94e 713d 0131 7d3d e92e d83d
000000a0: aa4e 70bd f05c 9fbd 6d74 763d 2519 6a3b
000000b0: 4897 b13c bc58 27bd 59b4 87bd de68 d93b
000000c0: 1a46 253d c10a 06bd 8227 aabd 41b3 943d
000000d0: 851b 643d fa1f 63bd fe53 bb3d f243 da3c
000000e0: d52a c5bb dfa5 96bc b8a0 613d ed0b 9b3d
000000f0: 861b 873d 5b97 b23c 0567 b8bd 69f7 f03c
0.04190323 -0.07148176 0.042695917 0.07239014 -0.036874432 -0.057198107 0.03813193 0.07463736
0.032994475 -0.022867605 -0.073386185 0.06762721 -0.016439784 0.084654644 -0.01406147 -0.09012725
0.063187934 0.08144396 -0.014592917 -0.01659583 0.020798216 -0.06536766 0.031550236 0.011673415
-0.049294494 0.0029665926 0.007745527 0.10797331 0.016984098 -0.021160118 0.10035887 -0.08820451
0.020529997 0.07401398 -0.0155293485 -0.028591484 0.10829855 0.058913145 0.061814312 0.105558224
-0.05866877 -0.07781398 0.060169626 0.0035720554 0.021678582 -0.040856108 -0.066261955 0.0066348156
0.040350057 -0.0327251 -0.08308317 0.072607525 0.055690307 -0.055450417 0.091468796 0.026643727
-0.006017069 -0.01838964 0.055084914 0.07570634 0.065970466 0.021800688 -0.090040244 0.02941485

action_head.weight f4 [20, 64]
00000000: a910 333d 80ab 94bd 1f81 5f3b 58f9 f1bc
00000010: 99dd 783d a44c ac3c f008 e1bc e829 213d
00000020: 652f eb3d 689e 92bd 7dd7 ddba 9f06 ad3d
00000030: b0ec a2bd 7841 e43d 5352 ec3d 22cb 7d3d
00000040: 1729 963c d95f d23d 1afb 2fbd bc69 f6bd
00000050: b86b 353d e4ee 1f3c 949b 11bd 9f9d 67bd
00000060: 2249 d43d e00a 8bbd 84a4 993d 65a7 debc
00000070: c2c4 01bb 5f37 c23c 8741 423b df29 9dbb
00000080: 65b8 b0bd 71e0 d3bc 593c a4bd 34bf 1bbd
00000090: 0c91 383d 9829 22bd 2c1a 743d 584e 4abd
000000a0: 40d3 b63d 5ccc 273d cacf 55bd 784c 9ebd
000000b0: c62a d2bd 6569 a9bd fe11 08bd 3ed3 9dbc
000000c0: 162d ed3b d6fc b03d 43f0 d8bd 331e a4bd
000000d0: eab7 c2bd 5c8c bfbd f7a1 6ebd 3614 653c
000000e0: a2ed 413d f1aa 843c 4d44 34bd aa34 ddbd
000000f0: 8619 c63d 85c7 3a3c a941 39bd 9d3b 063d
00000100: f3fa 103c ce7d f9bd c0a8 4b3d 5e87 4d3d
00000110: 5a18 34bd e60c 873c 79bd 4e3d 2180 68bd
00000120: eb05 fe3c e766 d4bd b57b 89bd 20dd 26bb
00000130: a014 9fbc 4145 2bbd 099a b83c 6439 cdbd
00000140: 81a6 7e3d c15a fa3d 3d71 d73d 1877 423d
00000150: a064 833d 8301 043d 08cd 69bd 4b10 91bd
00000160: fd18 f53d 8a11 be3d 8e41 cabc 26bf 4a3d
00000170: d619 f3bd 56a9 893d 3733 1d3d d767 0a3d
00000180: 3c4c d83c c2d8 8ebd ad76 8b3d 8efa eabd
00000190: df81 af3d 1905 2dbd 6387 203a 3f8f 983d
000001a0: 4ad1 483d 9879 16bd 4c04 c13d 7fe5 68bd
000001b0: 3963 91bd 73fc f43c c4b4 fabb 87b8 20bc
000001c0: c722 e93d 4ec6 16bd 5c4b e5bd 17ca cb3d
000001d0: d4ac a43d fc0a 003d 5e13 debd 125f 49bd
000001e0: 7805 053d 4b35 83bd ed10 1d3d 9231 7e3d
000001f0: 6c6a cebc 439b e9bd e580 96bd d055 7c3b
00000200: 6f98 353d 0131 8dbc 0e84 193d 7211 e53d
00000210: f8e0 293d 84b3 bfbd 8d6d c2bd 3fa4 ea3c
00000220: 1500 563d 6289 7bbd fa35 613d 8fdf d23d
00000230: 4972 4c3d 698c abbc 53a3 423c b5ef e63d
00000240: e75c e13d f254 bf3c 9ae5 4a3d 2fc8 a23d
00000250: 2640 dc3d b859 7a3d b07d c53d d861 603d
00000260: 941a eb3d b6b5 d2bd fda9 5a3c 9ff1 12be
00000270: c856 9b3c 3c15 863d abab 0bbe bf82 1b3d
00000280: 3a4d 9e3d ede4 cc3c 9c69 88bd 806a ccbd
00000290: 4175 873b d4ff 4ebd 08ea 783c 103e 04be
000002a0: cecb e63d 7001 adbc 861f 3cbd 44e3 be3c
000002b0: 55aa 02bd 357d cd3d 9d39 4cbd f649 c23b
000002c0: b890 1abd e937 b63d aff6 bd3d cfef cabc
000002d0: ff96 aa3c f0a0 593d 53c9 4d3d 09ef c9bc
000002e0: 0e73 85bc 1ca9 05bc 66cb 8fbd fa15 923d
000002f0: 3396 02be 32c3 ebbc 4444 29bd d240 4d3d
00000300: 3c4a 9e3c 47a8 ab3b 0255 04bd 560f d0bd
00000310: a1af 3e3b 8b4d 6a3c 6449 19bd 28c4 d7bd
00000320: ea16 71bd 6e8b ca3d 9b80 e3bd e517 353d
00000330: ed70 ba3d ffeb 7c3c d84c 5ebd 89db 10bc
00000340: 5c50 5c3d 12ae bb3d 8d2d edbd 85a3 82bd
00000350: 8e5f eebd 4f7f 433d fe8a 42bd 5dcd bebc
00000360: 8005 473d fa9d e0bd 0b21 a5bd ea21 c1bd
00000370: 12b5 283d d217 23be 5932 a73c 5a97 c23d
00000380: 5caf 193d 18d8 c03c 5a8e 9e3d 3482 113d
00000390: 9d76 2b3c 5647 76bd c31c 4dbd f9ab b33b
000003a0: 4eac c8bc 3a09 debd 057e 9b3c 6c20 c63c
000003b0: 2dc8 5ebd cb8e f2bc 2dbf d1bd a6ac b13c
000003c0: 99c9 b73c d1b3 13bd 0c81 99bd b4cb 043d
000003d0: 2d9c 9e3d 46da 843d 0666 f83a a415 0dbe
000003e0: 8202 9c3c ef46 16bd 7b72 35bb 0041 473b
000003f0: 5456 653d 053c bdbd 33d4 983d d168 a33d
0.04371706 -0.072592735 0.0034104062 -0.029537842 0.060758207 0.021032639 -0.027470082 0.039346606
0.11483649 -0.0715912 -0.0016925182 0.084485285 -0.07955301 0.111453 0.115391396 0.0619613
0.01833014 0.10272188 -0.04296408 -0.12031886 0.04429218 0.009761546 -0.03554876 -0.056546804
0.103655115 -0.067891836 0.07502082 -0.02717943 -0.0019801115 0.023708044 0.0029641108 -0.004796251
-0.086289205 -0.025863858 -0.08019323 -0.038024142 0.045060202 -0.03959045 0.059595272 -0.04939112
0.089270115 0.040966377 -0.052200116 -0.07729429 -0.10262065 -0.082720555 -0.033220284 -0.019265767
0.0072380407 0.08641975 -0.10592701 -0.080135725 -0.09507735 -0.09352943 -0.05825993 0.013981869
0.047345765 0.016194792 -0.04401045 -0.108010605 0.09672837 0.011400108 -0.045228634 0.032771695
0.008848893 -0.121821985 0.04972148 0.050177924 -0.043968536 0.016485643 0.050473664 -0.05676282
0.031008681 -0.103711896 -0.06713048 -0.002546139 -0.019419014 -0.041814093 0.022534387 -0.10020712
0.06217051 0.12224341 0.10519645 0.047476858 0.06415677 0.032228004 -0.0570803 -0.07083186
0.11967657 0.09280689 -0.024689462 0.0494987 -0.11870162 0.067217514 0.03837892 0.033790436
0.026403539 -0.06974937 0.06809745 -0.11473571 0.08569693 -0.04224119 0.000612369 0.07449197
0.04902772 -0.036737055 0.09424648 -0.05685949 -0.07099003 0.029905533 -0.0076509435 -0.00980962
0.113835864 -0.03681021 -0.11196014 0.09950655 0.08040777 0.031260476 -0.10843538 -0.04916293
0.03247592 -0.06406649 0.03834622 0.062058993 -0.02519723 -0.11406567 -0.073488034 0.0038503297
0.044334825 -0.017235281 0.037479453 0.11184968 0.041474313 -0.09360412 -0.094935514 0.028642772
0.052246172 -0.061410315 0.054983117 0.10296547 0.04991368 -0.020940976 0.01187976 0.11276189
0.11004048 0.023355935 0.04953537 0.07948338 0.10754423 0.06112072 0.096431136 0.05478081
0.11479679 -0.10288565 0.013346192 -0.14349984 0.018962279 0.06547019 -0.13639705 0.037966486
0.077295735 0.025011504 -0.066607684 -0.09981251 0.004133851 -0.050536945 0.015192516 -0.129143
0.112693414 -0.02111885 -0.0459285 0.023301728 -0.031900723 0.10033647 -0.04985963 0.005929227
-0.03773567 0.08897383 0.09275567 -0.024772553 0.020823954 0.053131998 0.050240826 -0.024650114
-0.016290214 -0.008157995 -0.07021217 0.07133098 -0.12752609 -0.0287796 -0.04132487 0.050110646
0.019322507 0.005238566 -0.032307632 -0.10159175 0.0029096382 0.014300714 -0.037423506 -0.10535461
-0.058859743 0.09889875 -0.11108514 0.04421224 0.0910357 0.015437125 -0.054272503 -0.008841404
0.053787574 0.09164061 -0.11580954 -0.06378845 -0.11639319 0.047728833 -0.047495835 -0.023291284
0.04858923 -0.10967632 -0.08062943 -0.09430297 0.041188307 -0.15927055 0.02040975 0.09501524
0.03752075 0.023540542 0.07741995 0.035524562 0.010465291 -0.060126625 -0.050076257 0.005483147
-0.024496224 -0.108416036 0.01898099 0.024185382 -0.05439012 -0.029609105 -0.10241542 0.02168877
0.022434996 -0.03606016 -0.07495317 0.03242083 0.07744632 0.06486945 0.0018951304 -0.13777786
0.019044165 -0.03668874 -0.0027686644 0.0030403733 0.055990532 -0.092399634 0.07462349 0.079789765

action_head.bias f4 [20]
00000000: 0056 55bd 3787 6dbd bf6f f0bd 207a 84bd
00000010: 4bf8 983d 3f9c 9b3d 3b7b 83bc 66e2 633c
00000020: 3f8b 003e 4292 6ebd 4e4c 8fbd 4bd8 d63d
00000030: bc11 cbbd 0d08 87bd 7533 7cbd 313a 9cbd
00000040: 82f7 61bd 2a52 e9bd 9389 f2bd 046b 913c
-0.05208397 -0.05799028 -0.11740064 -0.06468606 0.07469233 0.07598161 -0.016049972 0.013908958
0.12553118 -0.05824495 -0.06996976 0.10490473 -0.09915492 -0.065933324 -0.06157251 -0.07628287
-0.055167682 -0.11392625 -0.118426464 0.017751224

value_head.weight f4 [1, 64]
00000000: 5d64 503d 60f9 9cbd 7156 0e3e 3350 21bd
00000010: 4d78 f03d eebd 64bd 65e8 823d 9b50 32bd
00000020: 677f 2b3d 47fa 73bd 27a8 0abd ef2b bdbb
00000030: 8162 b03d 0187 123e 4f90 ddbd 71c0 b7bd
00000040: c0e6 acbd 8984 ebbd 088a ca3c 91c8 db3c
00000050: 882a 633d e4fa 67bd ab1e b0bc 667d 253d
00000060: b90b 29bc a30a 89bd d57a 803c 5b54 a33d
00000070: d82c bf3d 0fb3 b63c f083 803d 9cbf 92bc
00000080: 5586 7c3d 98b7 8c3d 75e3 e0bd fcdb d03d
00000090: 2e20 483d a1f1 c33c 0c76 d43c 2791 6f3d
000000a0: 286a 83bd c056 c03b 6161 fe3d d927 103d
000000b0: 0e9a 24bd a81d b33d eb84 e0bd 18bf f2bd
000000c0: 767b 3abd edf8 c93d 0dad a8bc 45e1 56bd
000000d0: 8b34 863d 085e a53c 213f c93d b2ff fe3d
000000e0: 85b1 52bc d693 bebd 7858 90bd d0a6 0a3e
000000f0: 8337 933d b793 963d b928 99bd c1f0 1ebb
0.050876964 -0.07664752 0.13900162 -0.039383125 0.117416956 -0.055845194 0.06391982 -0.043533903
0.041869547 -0.059564855 -0.03385177 -0.0057730596 0.08612538 0.14309312 -0.1081854 -0.08972252
-0.084424496 -0.114998884 0.024724022 0.026829036 0.055460483 -0.056635752 -0.021498999 0.040402792
-0.010317736 -0.06691482 0.01568357 0.07975074 0.09334725 0.022302179 0.06275165 -0.017913632
0.061651547 0.06870955 -0.10980884 0.10198209 0.048858814 0.023918929 0.025935195 0.058488037
-0.06416732 0.0058697164 0.12420917 0.03519425 -0.04018598 0.08745891 -0.10962852 -0.118528545
-0.045527898 0.09861932 -0.02059033 -0.052460928 0.065529905 0.02018644 0.09826494 0.12451114
-0.012859707 -0.09305541 -0.07048124 0.13540196 0.071883224 0.07352393 -0.0747847 -0.0024252387
