latest.pth (torch, 451023 bytes, 7 tensors)

fc1.weight f4 [128, 800]
-0.036205072 0.019956721 0.021182084 -0.021314818 0.028674802 0.011147301 -0.03941906 -0.00892392
-0.004790732 0.046817467 0.026921995 -0.008580512 -0.021641346 0.023628298 0.026140207 -0.011292214
-0.019856364 0.010673856 0.0100917 0.0064821597 0.021687698 0.0015873516 -0.022149652 -0.012243419
-0.0021306595 -0.011001212 -0.006345262 0.019826747 0.02647877 0.033325505 -0.051056877 -0.0036834544
0.016310148 -0.041997086 0.031748954 0.029280331 -0.00796057 0.0118456315 -0.035605557 0.04630198
0.006700725 0.00052039564 -0.0077252225 7.820087e-05 0.017026808 0.008608467 -0.000485965 -0.024758749
-0.005235627 -0.0072737155 0.020296736 0.03902285 0.022645978 -0.013034886 -0.037674837 -0.04067382
-0.0019893232 -0.011009197 0.020899272 0.005617783 0.017451128 -0.0039096433 -0.01048147 -0.029492758
0.0130034415 -0.004283337 -0.009161028 0.034999747 0.012062728 0.023137117 -0.042852595 -0.047001198
-0.031379256 -0.015273082 -0.026782978 -0.051660772 0.015184877 0.007962672 -0.0040274356 0.018001273
-0.016885646 -0.020220743 0.040293775 -0.04094315 -0.02124364 0.028645933 -0.029229658 -0.028115252
-0.0007307906 0.006890627 0.006276929 0.014911671 -0.014491792 -0.020848067 0.033716332 -0.023743527
0.02083038 -0.007888015 0.039153975 -0.018976757 -0.014083538 -0.0074085025 0.009774107 -0.0044189994
0.016404606 0.015173807 -0.014710441 0.011696788 -0.0017865917 0.026617363 0.0051539578 -0.010052954
0.018600065 0.009615125 -0.037935715 -0.020961542 0.016395729 0.014665145 0.006874071 0.025152031
0.009921059 -0.0060585993 -0.008526056 0.010808333 -0.010111803 0.02279427 -0.002042122 -0.044657353
-0.028832827 0.03285957 0.012300642 0.07622846 0.0021277247 -0.012754751 -0.019736921 -0.047583446
0.012850701 0.015249719 0.012215506 0.011883236 0.011948886 0.022168951 0.009453259 0.01688653
0.013427279 -0.00082924345 0.014168371 -0.020043168 0.019103082 -0.002544086 -0.008265734 0.025524804
-0.030283649 0.010423962 0.036137156 -0.0168281 0.010105271 0.039570827 0.038424965 -0.01148796
-0.014692929 -0.009483863 0.02413596 -0.018396046 0.032696094 0.02969252 0.0069153355 -0.037634045
-0.017402899 0.008333019 0.015044043 0.010606634 -0.015041716 -0.00018085874 0.0052830605 0.028592587
-0.028217312 -0.042595915 -0.008327249 -0.023364112 -0.026930781 -0.0050711744 0.0036995057 -0.0039982046
0.007009745 -0.0020769818 0.011065406 0.020758737 -0.015951538 0.005449478 -0.027681768 -0.040504772
-0.03262869 -0.012315181 -0.0194645 -0.03532812 -0.03219845 0.03505641 -0.024716048 -0.017747875
-0.005330874 0.00724328 0.016514942 0.0027054113 0.00044232662 0.002632838 -0.015418458 0.013597816
0.026933549 0.024075821 -0.0139925545 0.037123736 0.0060562626 0.0105363475 -0.029950058 -0.0295398
0.020922188 -0.035215046 0.00956776 0.020577133 -0.0031376146 0.012793659 0.028298236 -0.00096320524
0.023607438 -0.027262853 0.016762923 -0.041179873 0.024105074 0.02071793 0.012129039 -0.012453812
-0.0010006778 -0.03597052 -0.013884164 0.032508716 -0.007686839 -0.029712966 0.028610263 -0.011561195
-0.027633047 0.026840359 -0.00015464849 -0.021386972 0.016326467 -0.0058758887 0.027453642 -0.02936541
0.025344742 -0.023391621 -0.036788024 -0.008006694 0.017327892 -0.03159023 -0.011210701 -0.02963331
00000000: c54b 14bd 477c a33c 0d86 ad3c 6a9c aebc
00000010: 6be7 ea3c 2ba3 363c e175 21bd a235 12bc
00000020: 93fb 9cbb acc3 3f3d 848b dc3c 4795 0cbc
00000030: 3149 b1bc 2290 c13c fd23 d63c fa02 39bc
00000040: d0a9 a2bc 66e1 2e3c a857 253c 4c68 d43b
00000050: 66aa b13c ae0e d03a 3073 b5bc 9f98 48bc
00000060: 89a2 0bbb 6d3e 34bc eaeb cfbb b46b a23c
00000070: 01ea d83c 5380 083d 0421 51bd 1c66 71bb
00000080: dc9c 853c 2305 2cbd 310b 023d 4edd ef3c
00000090: 0d6d 02bc 2e14 423c 22d7 11bd 25a7 3d3d
000000a0: c191 db3b 296b 083a dd23 fdbb c6ff a338
000000b0: ce7b 8b3c 870a 0d3c 1ec9 feb9 dcd2 cabc
000000c0: 9f8f abbb 5958 eebb 5745 a63c 6dd6 1f3d
000000d0: 0f84 b93c 4690 55bc ee50 1abd 9799 26bd
000000e0: 4e5f 02bb eb5f 34bc f334 ab3c 6115 b83b
000000f0: abf5 8e3c 771c 80bb 79ba 2bbc cc9a f1bc
00000100: 630c 553c 3c5b 8cbb 2318 16bc e55b 0f3d
00000110: c0a2 453c 0d8a bd3c 3486 2fbd 5484 40bd
00000120: 8987 00bd f33b 7abc fa67 dbbc 3f9a 53bd
00000130: fec9 783c de75 023c 94f8 83bb 6877 933c
00000140: c453 8abc f9a5 a5bc 160b 253d 01b4 27bd
00000150: 2407 aebc e0aa ea3c 0973 efbc f551 e6bc
00000160: 8792 3fba c5ca e13b b2ae cd3b 1550 743c
00000170: fb6e 6dbc 91c9 aabc 231a 0a3d c981 c2bc
00000180: 79a4 aa3c bc3c 01bc eb5f 203d 2575 9bbc
00000190: a4be 66bc 06c3 f2bb 9323 203c 41cd 90bb
000001a0: f462 863c 8f9b 783c 1004 71bc e2a3 3f3c
000001b0: 122c eaba a80c da3c 88e2 a83b 25b5 24bc
000001c0: 2a5f 983c c288 1d3c 7b62 1bbd 8ab7 abbc
000001d0: 5650 863c 1446 703c e33f e13b a20b ce3c
000001e0: f08b 223c 3787 c6bb dfb0 0bbc 6f15 313c
000001f0: faab 25bc 0dbb ba3c 1fd5 05bb a1ea 36bd
00000200: d232 ecbc c297 063d a288 493c ab1d 9c3d
00000210: 4c71 0b3b 4ef9 50bc 53af a1bc dce6 42bd
00000220: bf8b 523c f5d9 793c 8c23 483c e7b1 423c
00000230: 43c5 433c a99b b53c d8e1 1a3c 9f55 8a3c
00000240: 17fe 5b3c 9661 59ba 7522 683c 9231 a4bc
00000250: 117e 9c3c aeba 26bb 006d 07bc 6519 d13c
00000260: 6a15 f8bc 44c9 2a3c 8e04 143d 15db 89bc
00000270: 9490 253c 0515 223d 7f63 1d3d ff37 3cbc
00000280: 9cba 70bc 3462 1bbc c7b8 c53c 4eb3 96bc
00000290: 57ec 053d ba3d f33c 0a9a e23b 2826 1abd
000002a0: 8690 8ebc 3787 083c 4a7b 763c 73c7 2d3c
000002b0: 8871 76bc e6a4 3db9 861d ad3b 003b ea3c
000002c0: fe27 e7bc 0e79 2ebd 046f 08bc 1866 bfbc
000002d0: f19d dcbc 182c a6bb 6873 723b 5f03 83bb
000002e0: 01b2 e53b f91d 08bb ad4b 353c 3a0e aa3c
000002f0: cdac 82bc 8991 b23b e0c4 e2bc 55e8 25bd
00000300: a9a5 05bd 9dc5 49bc 0474 9fbc 38b4 10bd
00000310: 86e2 03bd 4f97 0f3d 4f79 cabc fe63 91bc
00000320: 9dae aebb 0959 ed3b 584a 873c 454d 313b
00000330: 13e8 e739 b18b 2c3b b39d 7cbc 60c9 5e3c
00000340: bfa3 dc3c a83a c53c 0741 65bc 0f0f 183d
00000350: 9d73 c63b a5a0 2c3c d359 f5bc 73fd f1bc
00000360: 0265 ab3c a73d 10bd 18c2 1c3c 6091 a83c
00000370: 70a0 4dbb 7f9c 513c b4d1 e73c 9c7f 7cba
00000380: 6364 c13c 5956 dfbc 6652 893c 3aac 28bd
00000390: 0178 c53c a6b8 a93c e0b8 463c 130b 4cbc
000003a0: 2d29 83ba d355 13bd 687a 63bc dc27 053d
000003b0: e1e1 fbbb 9b68 f3bc 1260 ea3c 2b6b 3dbc
000003c0: b35e e2bc 50e0 db3c 2329 22b9 bb33 afbc
000003d0: 15bf 853c 878a c0bb 76e6 e03c ba8f f0bc
000003e0: c79f cf3c c99f bfbc 0aaf 16bd 822e 03bc
000003f0: 39f3 8d3c c264 01bd 17ad 37bc 8ec1 f2bc

fc1.bias f4 [128]
0.030458674 0.0029184567 -0.03271974 -0.017855538 0.01791401 0.0054294546 0.016742691 0.06133889
0.049327347 0.005026367 0.0037800546 0.020894615 -0.032620218 0.040173076 0.0014400323 0.016139558
0.0155319525 -0.027889049 0.03590302 0.04293415 0.030037321 0.0028808846 0.02005732 0.006003054
0.043918777 0.053489342 0.014910014 -0.0008512476 0.0066840528 0.012002566 -0.0046689473 -0.037228387
-0.026030093 -0.038498282 0.017134905 -0.013064637 0.02733675 0.04460664 0.053641677 0.044413265
0.032813035 0.0007278833 -0.037008528 0.03779923 0.0139082 0.05499647 0.0095668705 0.009195998
-0.014453478 0.04627621 0.013509263 -0.013027221 0.042816814 0.03392627 0.012806131 0.041956443
0.061312716 0.039569993 0.0491498 0.0468455 0.0089295395 0.03684738 0.015899401 0.028179249
-0.008884686 0.032922998 0.008393687 0.02307066 0.06295372 0.017176535 -0.019266482 0.014597092
0.055896528 -0.014077861 0.020942446 0.061009727 0.03549916 0.039396837 0.037671097 -0.031368412
-0.026210597 0.049977727 0.047911596 0.014844419 0.039043076 0.012989527 -0.032172438 -0.021109615
0.022783106 0.04761641 0.016678933 0.03574585 0.048211172 -0.0054913294 0.014599362 -0.019529013
-0.0038263365 0.009294025 0.028101185 0.0044195494 0.056111414 0.051971503 0.019968726 -0.0037065
0.017670065 -0.0038754556 0.05120201 0.038200848 0.0017969975 -0.010681604 0.0098927915 0.06507793
0.054749552 0.056668803 -0.01801405 0.011605171 0.017620808 0.040116467 0.0016498005 -0.03443809
-0.010793195 -0.0063321115 0.05894866 0.033988405 -0.00017434778 0.04488894 0.05332034 0.009746784
00000000: 7884 f93c 9443 3f3b 2205 06bd c745 92bc
00000010: 67c0 923c 91e9 b13b f827 893c 7d3e 7b3d
00000020: 790b 4a3d 39b4 a43b cbba 773b 2f2b ab3c
00000030: c79c 05bd 868c 243d 77bf bc3a 1b37 843c
00000040: bb79 7e3c 9377 e4bc 0c0f 133d b8db 2f3d
00000050: d410 f63c 39cd 3c3b 404f a43c 44b5 c43b
00000060: 2de4 333d a417 5b3d 2249 743c 4226 5fba
00000070: e605 db3b 69a6 443c f8fd 98bb cb7c 18bd
00000080: 103d d5bc 60b0 1dbd 805e 8c3c 0f0d 56bc
00000090: 52f1 df3c 74b5 363d 60b7 5b3d afea 353d
000000a0: f666 063d 6ccf 3e3a 4196 17bd 5ed3 1a3d
000000b0: 38df 633c fb43 613d 5dbe 1c3c d0aa 163c
000000c0: 48ce 6cbc 208c 3d3d f555 5d3c 2070 55bc
000000d0: af60 2f3d 46f6 0a3d ced0 513c 85da 2b3d
000000e0: 0b23 7b3d 2514 223d 4d51 493d 11e1 3f3d
000000f0: 344d 123c 47ed 163d 763f 823c 2bd8 e63c
00000100: 1391 11bc 44da 063d ad85 093c aefe bc3c
00000110: e1ed 803d ceb5 8c3c bed4 9dbc a428 6f3c
00000120: c2f3 643d d4a6 66bc 7e8f ab3c 56e5 793d
00000130: 9167 113d 945e 213d 024d 1a3d 2a7c 00bd
00000140: 9bb7 d6bc 72b5 4c3d f33e 443d 0236 733c
00000150: a2eb 1f3d 06d2 543c 3fc7 03bd 12ee acbc
00000160: a3a3 ba3c 6d09 433d 42a2 883c 3e6a 123d
00000170: 1479 453d 9cf0 b3bb 2a32 6f3c 4ffb 9fbc
00000180: 46c3 7abb f745 183c 7534 e63c ded1 903b
00000190: 15d5 653d 12e0 543d 7495 a33c c0e8 72bb
000001a0: d0c0 903c 5bfb 7dbb 33b9 513d 7e78 1c3d
000001b0: 3b89 eb3a e501 2fbc 6015 223c 9447 853d
000001c0: 1141 603d 8c1d 683d 3392 93bc 9d23 3e3c
000001d0: 8359 903c 2a51 243d 1e3e d83a f40e 0dbd
000001e0: f1d5 30bc 9a7d cfbb 2674 713d 6d37 0b3d
000001f0: 20d1 36b9 77dd 373d 6e66 5a3d fab0 1f3c

fc2.weight f4 [64, 128]
0.08745281 -0.057237506 -0.012444132 0.00841909 0.006707015 0.050888117 0.009300302 0.026264362
-0.024995312 0.009235384 0.0417635 -0.06279904 -0.022450404 0.100507185 0.0213546 0.024058193
-0.040761463 -0.022555143 0.10942705 0.09990512 -0.04859492 0.053927477 -0.036312792 -0.046916757
-0.013339211 -0.04424361 -0.0038694553 0.04515323 0.05387192 -0.041103654 -0.019115945 0.053071734
0.06636972 0.036454033 0.07696586 0.03739605 -0.059655137 0.066159956 0.094523005 0.087176576
-0.0072523872 0.016809663 -0.04815117 0.059686486 -0.01798203 -0.0061438913 0.051155392 0.10318606
0.0736866 0.09771182 -0.052267082 0.02100363 -0.034376666 -0.037704293 0.067977786 0.021294992
-0.040941987 -0.017382333 0.05696212 0.07957859 -0.05128394 -0.039627723 0.08612976 0.06285948
-0.037779577 0.06416902 -0.07246429 0.0824532 -0.004773602 0.045683093 -0.011276604 0.08204809
0.09019971 0.016985537 0.060483787 -0.0031619286 -0.061062776 0.00976885 0.050643925 0.060039166
-0.039535105 0.095989384 0.07063792 -0.049970087 -0.016306227 0.08729943 0.06896179 0.08181654
-0.064092144 0.009276192 0.06505866 0.07318982 -0.019760435 -0.024229512 0.053078514 -0.0600046
-0.0011267248 0.08961493 0.09894656 0.01213799 -0.0076823942 0.013889544 0.110615194 0.0046256473
-0.032010157 0.048859794 0.062965445 0.021192737 0.06710736 0.0917489 0.033227533 0.077425785
0.07851411 0.018738357 0.120058805 0.100664854 0.083070174 0.06313078 -0.052005637 -0.02142087
0.07941365 -0.06709633 0.04088922 0.081136025 -0.026423478 0.05634763 0.09614195 0.11114027
0.05119356 -0.07269058 -0.07883814 0.05644931 -0.07056487 -0.077135704 -0.045079075 -0.021194708
0.022204788 -0.035523932 0.008967398 0.04965767 0.02170264 0.05970373 -0.024780985 -0.0745369
0.021087674 0.036685564 -0.05565913 -0.09120858 0.070846334 -0.06001426 -0.05043746 -0.043974645
-0.07383564 0.024571527 0.01607014 -0.029109247 -0.05777152 0.0539354 0.0028536685 -0.05370606
-0.07239481 0.074202836 -0.04670349 -0.05332191 -0.019755924 0.047182355 -0.0066846726 0.05785335
0.06324319 0.033782024 -0.058935132 -0.08416441 0.020033432 -0.03338625 0.06539538 0.02255909
0.05323581 -0.0043620425 -0.09408475 0.008786183 0.06826776 0.054843936 -0.081706524 -0.015223195
0.023307411 -0.041782774 -0.08898498 -0.0068375254 0.0082161045 -0.03887282 0.04269905 0.08724399
-0.08480888 -0.060220044 -0.06533214 0.03476939 0.0040520667 -0.024467153 0.06854626 -0.05669434
-0.020224039 0.005371213 0.058874916 0.03505809 0.05688955 -0.08498512 0.053059224 -0.074635684
-0.011188955 0.043903336 -0.06653113 -0.09277719 -0.0079581 0.04541083 0.06995529 0.084791996
0.050512686 -0.025282575 0.023955584 0.060072985 -0.02675703 0.06619996 0.057063606 -0.029765021
-0.021586448 0.05759872 0.062184744 0.055277556 0.041499246 -0.023442963 0.036366224 0.012343487
0.039384685 -0.023058018 -0.08302687 0.05399444 0.06837412 -0.038759995 0.031974103 -0.041743785
-0.0831023 -0.04619726 0.057442605 0.07004295 0.0849958 0.031760667 0.05250452 -0.06678811
-0.026610255 -0.01696144 -0.09585858 -0.0331221 -0.058549643 0.06873999 0.018856756 -0.0822036
00000000: 751a b33d e071 6abd 79e2 4bbc 39f0 093c
00000010: 85c6 db3b 0f70 503d 4b60 183c 5c28 d73c
00000020: f8c2 ccbc 0250 173c 3410 2b3d c89c 80bd
00000030: e9e9 b7bc b6d6 cd3d d8ef ae3c b015 c53c
00000040: 7ef5 26bd 90c5 b8bc 4a1b e03d 0e9b cc3d
00000050: 780b 47bd 0fe3 5c3d b9bc 14bd c92b 40bd
00000060: b58c 5abc ca38 35bd b096 7dbb 98f2 383d
00000070: cda8 5c3d 4e5c 28bd 0b99 9cbc bf61 593d
00000080: d9ec 873d d350 153d 47a0 9d3d 9a2c 193d
00000090: f258 74bd df7e 873d 4795 c13d a289 b23d
000000a0: 6fa5 edbb 6bb4 893c 293a 45bd d179 743d
000000b0: 0d4f 93bc b252 c9bb 5188 513d 3753 d33d
000000c0: 00e9 963d 221d c83d 0216 56bd ce0f ac3c
000000d0: 8cce 0cbd d16f 1abd f037 8b3d d672 ae3c
000000e0: c9b2 27bd 6565 8ebc 1d51 693d 1afa a23d
000000f0: 1c0f 52bd ae50 22bd cd64 b03d 79bc 803d
00000100: c2be 1abd 0c6b 833d 2868 94bd 39dd a83d
00000110: e06b 9cbb 321e 3b3d 81c1 38bc d408 a83d
00000120: a0ba b83d 4125 8b3c d9bd 773d 5c38 4fbb
00000130: f61c 7abd 870d 203c 0170 4f3d a1eb 753d
00000140: 90ef 21bd 1596 c43d 9daa 903d 6fad 4cbd
00000150: a394 85bc 0bca b23d d73b 8d3d 6e8f a73d
00000160: be42 83bd 2bfb 173c 7a3d 853d 8be4 953d
00000170: a3e0 a1bc f87c c6bc db68 593d 62c7 75bd
00000180: 9cae 93ba 0888 b73d 7ea4 ca3d 6cde 463c
00000190: 98bc fbbb f890 633c 388a e23d be92 973b
000001a0: 151d 03bd 3521 483d 07f4 803d 649c ad3c
000001b0: 956f 893d d9e6 bb3d 9819 083d 6991 9e3d
000001c0: 01cc a03d 2f81 993c 64e1 f53d 6029 ce3d
000001d0: b220 aa3d b64a 813d dd03 55bd d27a afbc
000001e0: a0a3 a23d cd69 89bd 747b 273d a52a a63d
000001f0: 0d76 d8bc c6cc 663d 12e6 c43d 839d e33d
00000200: 57b0 513d ccde 94bd e475 a1bd 6437 673d
00000210: 5184 90bd 53f9 9dbd d6a4 38bd 86a0 adbc
00000220: d1e6 b53c 8b81 11bd feeb 123c d765 4b3d
00000230: bcc9 b13c e68b 743d 7e01 cbbc cda6 98bd
00000240: 0fc0 ac3c 9a43 163d d4fa 63bd 90cb babd
00000250: e217 913d 83d1 75bd 8397 4ebd c21e 34bd
00000260: 2437 97bd 3a4a c93c 87a5 833c 8476 eebc
00000270: d4a1 6cbd 5eeb 5c3d 9d04 3b3b e3fa 5bbd
00000280: bb43 94bd a8f7 973d 294c 3fbd 1368 5abd
00000290: 2dd7 a1bc 4942 413d 190b dbbb a2f7 6c3d
000002a0: a585 813d 055f 0a3d f765 71bd 645e acbd
000002b0: 271d a43c 05c0 08bd 03ee 853d d7cd b83c
000002c0: cb0d 5a3d 77ef 8ebb 81af c0bd ecf3 0f3c
000002d0: f8cf 8b3d 09a4 603d c055 a7bd b56a 79bc
000002e0: 2fef be3c 6a24 2bbd c23d b6bd 520d e0bb
000002f0: d79c 063c 1b39 1fbd 33e5 2e3d faac b23d
00000300: 47b0 adbd 4ba9 76bd dbcc 85bd 596a 0e3d
00000310: 33c7 843b 576f c8bc fb61 8c3d 5338 68bd
00000320: e2ac a5bc 0001 b03b d326 713d 1299 0f3d
00000330: 0405 693d ae0c aebd a154 593d 98da 98bd
00000340: e151 37bc fcd3 333d 7941 88bd f801 bebd
00000350: b162 02bc b500 3a3d b844 8f3d 6da7 ad3d
00000360: 64e6 4e3d 671d cfbc 803e c43c 170f 763d
00000370: 8f31 dbbc d893 873d 87bb 693d c6d5 f3bc
00000380: 10d6 b0bc a3ec 6b3d 6eb5 7e3d b86a 623d
00000390: 1dfb 293d 750b c0bc c0f4 143d 563c 4a3c
000003a0: d651 213d 2be4 bcbc fe09 aabd 4629 5d3d
000003b0: bb07 8c3d cdc2 1ebd 47f7 023d 88fb 2abd
000003c0: 8a31 aabd 5739 3dbd f048 6b3d ae72 8f3d
000003d0: 4712 ae3d 7917 023d fb0e 573d 34c8 88bd
000003e0: c0fd d9bc b8f2 8abc 8151 c4bd 0aab 07bd
000003f0: c0d1 6fbd 8dc7 8c3d 7c79 9a3c 5c5a a8bd

fc2.bias f4 [64]
-0.01943245 -0.08417438 0.04561755 -0.011770683 0.034170467 0.060513902 0.07680175 0.08909802
-0.04319466 -0.060183343 0.06839056 -0.032362774 -0.027191214 0.007336671 -0.07533701 0.03247878
0.08103649 -0.025186077 -0.04097195 0.05091859 -0.03588195 -0.06356642 -0.002193941 0.08211317
0.017941853 -0.036442973 0.05572079 0.03849435 0.012294006 0.016424682 -0.024150997 -0.03218957
0.0060638664 0.009707417 0.0019626617 -0.07401918 0.06784574 0.039838374 -0.034087557 0.015047608
0.017594868 -0.0039970456 0.07686103 0.05085974 -0.06939427 0.0044965157 -0.04657014 0.11724681
0.0069852998 0.09473874 0.057210997 0.08775349 0.09728849 0.1055993 -0.024716761 -0.011256661
-0.08164509 -0.04309352 -0.03519477 0.0820789 0.019049998 -0.002437999 0.044383258 -0.00013494446
00000000: cd30 9fbc 9e63 acbd 78d9 3a3d d3d9 40bc
00000010: 55f6 0b3d 6ddd 773d 3c4a 9d3d 0679 b63d
00000020: e2ec 30bd cf82 76bd 5a10 8c3d d48e 04bd
00000030: 1cc0 debc 7568 f03b 4a4a 9abd 7808 053d
00000040: 76f6 a53d 0853 cebc 34d2 27bd 0390 503d
00000050: f4f8 12bd 1c2f 82bd 39c8 0fbb f32a a83d
00000060: cbfa 923c 3a45 15bd 7c3b 643d 40ac 1d3d
00000070: cc6c 493c 0e8d 863c 50d8 c5bc 36d9 03bd
00000080: 66b3 c63b dc0b 1f3c 00a0 003b 5e97 97bd
00000090: b5f2 8a3d 902d 233d 659f 0bbd 3e8a 763c
000000a0: 1d23 903c a6f9 82bb 5169 9d3d 4d52 503d
000000b0: 951e 8ebd 8257 933b 55c0 3ebd 181f f03d
000000c0: f1e4 e43b 6206 c23d 1456 6a3d 1ab8 b33d
000000d0: 303f c73d 7244 d83d ce7a cabc dc6d 38bc
000000e0: 8a35 a7bd d582 30bd 6428 10bd fb18 a83d
000000f0: be0e 9c3c d6c6 1fbb 38cb 353d e17f 0db9

action_head.weight f4 [20, 64]
0.07383355 -0.008459039 -0.06999341 0.08862897 -0.050807245 0.079949826 0.058716357 -0.0048620584
0.087467864 0.09835978 0.031229407 0.041077394 0.03074769 -0.009694101 0.030132879 0.053177394
-0.017047245 -0.121876866 -0.057649944 0.08553502 -0.010074212 -0.02671364 -0.018095747 0.045169007
-0.19532904 -0.06403301 -0.043523967 0.047961447 0.12386176 -0.09343162 0.023238232 0.07752706
0.033539925 0.0024530194 0.025143633 -0.022798793 0.10167979 0.019811943 -0.018317359 0.04726529
-0.026760409 0.06264643 -0.024745414 -0.007758243 0.007126257 0.008874714 -0.11246474 -0.0038625572
-0.11073784 0.0042529507 0.0073591922 0.12544325 0.008792231 0.1093768 -0.102023944 0.082764916
0.11118677 -0.04392448 -0.05728464 -0.0040438366 -0.10972415 0.073779486 0.1061927 0.00095220644
-0.005328555 -0.020173565 -0.027710604 -0.053313073 0.027543703 -0.11404879 -0.104034156 -0.05266716
-0.08846377 -0.006483774 -0.018516779 -0.11627074 0.034709323 -0.058201022 -0.12710652 -0.057023697
0.12064527 -0.081741795 -0.011474291 -0.02946178 0.03218377 -0.117752686 -0.051594935 -0.0063534477
0.05386938 0.14090347 -0.04708324 -0.09091539 0.03980912 0.091422305 -0.10830271 0.101276346
0.07379978 0.07220682 0.06648518 0.072079 -0.09715206 -0.07198983 -0.012003572 0.09001081
0.112869225 -0.08135833 -0.09247947 0.10099809 -0.022731647 -0.05242983 -0.061796345 -0.10688379
0.09930129 -0.09245182 -0.041737 0.077929236 -0.029912518 0.121487744 -0.07814914 -0.03175404
0.04091513 -0.054067165 0.0539241 0.091557704 -0.07204459 -0.04766954 0.0731812 0.13938443
-0.022611642 -0.04974993 -0.0012551538 0.051187176 0.14337397 0.03409886 -0.081996135 -0.017275393
0.03907823 -0.0025552134 -0.048390567 -0.1044301 0.008262847 -0.1237609 0.096130356 -0.10957369
0.00082388386 -0.07999786 0.07638857 0.044908814 -0.10656429 -0.044340804 -0.11775558 -0.0844829
0.009721311 -0.077412404 -0.054851916 0.015889088 -0.06239073 -0.08848254 0.11162029 0.08926772
0.10580091 0.041688513 0.09459917 -0.00597189 0.039117403 0.07352721 -0.10198649 0.1430314
-0.014875993 -0.021681529 -0.08621132 0.079296395 -0.0621337 0.07056487 -0.1033369 0.08835423
-0.09384551 0.06619193 -0.023135541 0.0901468 0.057683837 -0.07702058 -0.063408405 0.11963128
0.041124757 -0.09615115 0.015156789 0.05233542 0.049655646 -0.09592831 -0.026299814 0.07667694
-0.0872709 -0.0662558 0.105645664 0.09207544 -0.052467473 -0.10177336 -0.03310375 -0.0026695407
-0.09959248 0.11057511 -0.093070775 -0.04770745 0.07349178 -0.0008109635 -0.019127758 0.10572186
0.07179988 -0.012147896 -0.049358852 0.1005839 -0.04295094 -0.025204584 -0.111859195 -0.00096434104
0.06994754 0.031648364 0.067662284 -0.11052005 -0.12184418 0.055791646 0.00018972189 -0.08522677
0.07017194 -0.046396405 -0.046695273 -0.060156267 0.107167825 -0.08528635 0.13041866 -0.0059175454
-0.077337 0.05212397 -0.056282565 0.044672016 -0.04758002 -0.037299335 -0.08456065 -0.046496913
0.07603865 0.09521889 -0.030704714 -0.0601109 -0.049783666 -0.007282718 -0.004075883 -0.037366807
-0.09829828 -0.1184576 -0.053612676 -0.015458024 -0.11427753 -0.082174994 0.10441404 0.037563037
00000000: 0b36 973d c897 0abc b458 8fbd 1b83 b53d
00000010: 421b 50bd bcbc a33d 9080 703d e751 9fbb
00000020: 5a22 b33d da70 c93d d0d4 ff3c c540 283d
00000030: 94e2 fb3c 02d4 1ebc 3ad9 f63c 8ad0 593d
00000040: aaa6 8bbc 949a f9bd 5922 6cbd fc2c af3d
00000050: 4f0e 25bc 90d6 dabc 883d 94bc 2303 393d
00000060: 5604 48be bd23 83bd 3046 32bd 3973 443d
00000070: 3cab fd3d 1459 bfbd 1b5e be3c 82c6 9e3d
00000080: 2961 093d d6c2 203b 05fa cd3c 89c4 babc
00000090: 7e3d d03d a84c a23c 490e 96bc 4099 413d
000000a0: a538 dbbc c64c 803d e5b6 cabc dc38 febb
000000b0: 6083 e93b 4067 113c ea53 e6bd f522 7dbb
000000c0: 85ca e2bd 565c 8b3b 6125 f13b 3274 003e
000000d0: 4a0d 103c f200 e03d eef1 d0bd a780 a93d
000000e0: e4b5 e33d 28ea 33bd 4ca3 6abd 2982 84bb
000000f0: 0eb7 e0bd b319 973d 8f7b d93d 7e9d 793a
00000100: 299b aebb 0843 a5bc 5901 e3bc cf5e 5abd
00000110: 55a3 e13c 6992 e9bd dc0f d5bd 85b9 57bd
00000120: 7e2c b5bd d775 d4bb 80b0 97bc 5b1f eebd
00000130: 5d2b 0e3d 3264 6ebd 3628 02be ae91 69bd
00000140: de14 f73d 3e68 a7bd aafe 3bbc d559 f1bc
00000150: 21d3 033d 5228 f1bd 3655 53bd 9530 d0bb
00000160: 24a6 5c3d 0049 103e 5bda 40bd d931 babd
00000170: e30e 233d 9e3b bb3d d0cd ddbd f969 cf3d
00000180: 5724 973d 2be1 933d 6229 883d 289e 933d
00000190: a9f7 c6bd 676f 93bd a1aa 44bc 9657 b83d
000001a0: fb27 e73d 329f a6bd e065 bdbd 16d8 ce3d
000001b0: b837 babc a9c0 56bd 2a1e 7dbd e3e5 dabd
000001c0: 7a5e cb3d 6157 bdbd 6bf4 2abd 5d99 9f3d
000001d0: 190b f5bc 91ce f83d a80c a0bd 8610 02bd
000001e0: a096 273d 8875 5dbd 84df 5c3d 9b82 bb3d
000001f0: 1d8c 93bd 2341 43bd 06e0 953d cbba 0e3e
00000200: 0d3c b9bc 95c6 4bbd f983 a4ba a5a9 513d
00000210: a0d0 123e 3fab 0b3d 97ed a7bd 2085 8dbc
00000220: 7e10 203d 5e75 27bb 3035 46bd 73df d5bd
00000230: e460 073c 5b76 fdbd fedf c43d 2c68 e0bd
00000240: e9f9 573a ebd5 a3bd 9c71 9c3d 4ef2 373d
00000250: 613e dabd b49e 35bd d629 f1bd 5f05 adbd
00000260: 2246 1f3c 658a 9ebd 67ac 60bd d529 823c
00000270: 6c8d 7fbd 5536 b5bd 2e99 e43d ffd1 b63d
00000280: 26ae d83d 93c1 2a3d 36bd c13d d8af c3bb
00000290: 9239 203d 6f95 963d 4bde d0bd d376 123e
000002a0: 70ba 73bc 769d b1bc 8f8f b0bd 2666 a23d
000002b0: e87f 7ebd 5184 903d 4ca2 d3bd 10f3 b43d
000002c0: 1332 c0bd a28f 873d bf86 bdbc e39e b83d
000002d0: e345 6c3d f7bc 9dbd 44dc 81bd 3f01 f53d
000002e0: 6f72 283d e5ea c4bd 2e54 783c aa5d 563d
000002f0: b863 4b3d 1076 c4bd b572 d7bc cd08 9d3d
00000300: 16bb b2bd 1fb1 87bd c15c d83d 0c92 bc3d
00000310: 22e8 56bd 8d6e d0bd cc97 07bd 76f3 2ebb
00000320: 24f7 cbbd 3475 e23d e49b bebd e368 43bd
00000330: dc82 963d d796 54ba d1b1 9cbc b484 d83d
00000340: d10b 933d f807 47bc 822c 4abd effe cd3d
00000350: 53ed 2fbd d879 cebc 6f16 e5bd d5cb 7cba
00000360: a840 8f3d b7a1 013d 8692 8a3d 5658 e2bd
00000370: 7189 f9bd c885 643d 15f0 4639 5f8b aebd
00000380: 4eb6 8f3d 280a 3ebd 8b43 3fbd 6b66 76bd
00000390: ce7a db3d 9caa aebd 788c 053e f8e7 c1bb
000003a0: dc62 9ebd f27f 553d 8c88 66bd 01fa 363d
000003b0: 44e3 42bd 30c7 18bd 222e adbd 8c73 3ebd
000003c0: 27ba 9b3d 1f02 c33d 7488 fbbc d936 76bd
000003d0: f5e9 4bbd dea3 eebb fc8e 85bb f00d 19bd
000003e0: 9c50 c9bd e699 f2bd f798 5bbd a743 7dbc
000003f0: 560a eabd 5d4b a8bd 07d7 d53d b3db 193d

action_head.bias f4 [20]
-0.051625583 -0.096206956 -0.0782415 -0.035902757 -0.06570176 0.11207377 -0.02541126 0.08193661
-0.079282984 0.026346125 -0.12598793 0.08360991 -0.038195375 -0.0053085373 0.05407798 0.016200619
-0.076697975 -0.040303692 0.12105798 0.09467417
00000000: 5975 53bd 2708 c5bd 143d a0bd c50e 13bd
00000010: a58e 86bd ef86 e53d 462b d0bc 62ce a73d
00000020: 1e5f a2bd d4d3 d73c fb02 01be ac3b ab3d
00000030: c172 1cbd 3df3 adbb df80 5d3d 29b7 843c
00000040: d413 9dbd 7c15 25bd 3fed f73d 88e4 c13d

value_head.weight f4 [1, 64]
0.06320364 -0.08724931 0.087907664 -0.054421976 0.104600236 -0.10785422 0.084623314 0.09613899
0.12424629 -0.058723457 -0.045847736 -0.06612178 0.12937261 -0.10007108 -0.02419962 -0.04196072
-0.062374305 0.112081595 -0.085478194 0.061744537 -0.11101705 0.06648052 -0.037621666 -0.11068541
0.06392079 0.10352976 0.121781826 0.11765561 0.01692419 -0.09331722 -0.070670106 -0.033101026
-0.110279664 0.003904798 -0.022539392 -0.0052926405 0.08566206 -0.021727653 0.06571118 0.015734833
0.04856031 0.09493011 0.022227705 0.0028092111 0.053519562 -0.018273545 -0.0895902 0.12637645
0.06607943 0.07377492 -0.081733026 0.067354426 0.106660746 0.068298586 0.12055277 -0.081937775
-0.08544837 -0.077043936 0.038185943 0.056532294 -0.0051410412 0.0790417 0.0026649507 0.05809847
00000000: e970 813d c4af b2bd ef08 b43d 94e9 5ebd
00000010: a638 d63d ace2 dcbd fd4e ad3d 85e4 c43d
00000020: d774 fe3d 0288 70bd d6ca 3bbd db6a 87bd
00000030: 417a 043e 11f2 ccbd 483e c6bc 01df 2bbd
00000040: 337c 7fbd 098b e53d 310f afbd d7e7 7c3d
00000050: e85c e3bd f026 883d 2d19 1abd 08af e2bd
00000060: e7e8 823d 6907 d43d c068 f93d 6df5 f03d
00000070: 99a4 8a3c 191d bfbd 7dbb 90bd f194 07bd
00000080: 4eda e1bd a4e7 7f3b 88a4 b8bc e36d adbb
00000090: 976f af3d 31fe b1bc 9593 863d 56e6 803c
000000a0: 2de7 463d b86a c23d e016 b63c be1a 383b
000000b0: 5437 5b3d 67b2 95bc 117b b7bd d468 013e
000000c0: a754 873d 4e17 973d a563 a7bd 1ef1 893d
000000d0: f370 da3d 21e0 8b3d 5fe4 f63d fece a7bd
000000e0: 8eff aebd 36c9 9dbd dd68 1c3d 688e 673d
000000f0: 2e76 a8bb 9de0 a13d 74a6 2e3b a9f8 6d3d
