latest.pth (torch, 451023 bytes, 7 tensors)

fc1.weight f4 [128, 800]
00000000: 2ad7 5f3d 5bfe 48bd 84a4 8f3a e0dc 9abc
00000010: a0d4 003d 8684 723d d9d4 93bc 917c a6bc
00000020: 8bb4 0b3c e3dc f53c 3a2f 823d 72db 993c
00000030: e87b 32bc 30f9 8d3b a093 cd3c ba7c 15bc
00000040: a569 f8bb d025 a3bc d8e6 a5bb 0b92 e5bb
00000050: a4b9 a63c fd7a e63c dcd6 6dbd 1959 8b3c
00000060: 027a 453d 11ec 3cbc feac 25bd 5337 ad3c
00000070: af8d 093b de32 fd3b 41d2 413d 250f e53c
00000080: 1b8f 8f3d 4a50 55bb e52d e4b9 50b7 cebb
00000090: 5a35 48bd 448e 713b f218 40bc 542f 933c
000000a0: f901 b7ba 28eb 5bbb 5227 b93c 27af b53b
000000b0: 6ec9 793b 502b 4b3d 9203 a03b f0dd a9bc
000000c0: 3db4 2abc d638 e03c 8b52 d03b 36f0 c2bb
000000d0: 2de4 653c 8311 3abd f50e 61bc 8737 b6bc
000000e0: bcc5 5cbd fc80 3a3a b1c7 883c 320d 433d
000000f0: 2b20 bbbc 8e77 d93c 6454 aa3b 2bfa 353d
00000100: 53a9 c03b 290f 44bb ac91 e9bc 3a28 84bc
00000110: 09cd b9bc 060b 79bc fa5f 60bc b630 16bd
00000120: 2a6e 07bd 0ea6 81bc 5b8c 43bc b015 6c38
00000130: 4c84 cc3c f805 49bc 0b1d 0b3c 9238 0f3d
00000140: 327c ebbc 82c0 cfbc 192c a1bc c001 6f3c
00000150: 835e 8e3c 45b6 083d d018 dc3c 3436 33bc
00000160: 44b1 30bb b659 b53c 6f78 74bc fd31 323d
00000170: 6d6f 43bc 8ea6 0d3c b14f 10bc a932 3c3c
00000180: f57a 87bc ce94 e9bc f951 b8bc 6268 29bd
00000190: b9b7 babc 4ac1 363b 3677 253c 3a28 833c
000001a0: 620c e3bb eebe a7bc 8634 77bc 8111 e1bc
000001b0: 43e4 793c c7b0 01bc 373d b53c b6cc ca3b
000001c0: 57d6 c73b 7f6f 40bd 6cf0 42bc adae 4eb9
000001d0: dc4b 10bd 6ee9 bdbc bfe5 e9bc 6557 c43a
000001e0: 67e1 15bc 1d5b 8a3c de6a 973c 8d68 253c
000001f0: 487d 80ba 3798 923c c862 3f3c 2dea 0fbd
00000200: 2b55 a5bc cdb6 143d 622e 5ebc e75e 08bd
00000210: a737 1bbb d61a 4a3a 727c 30bc 9bd5 823c
00000220: 5b9b eebb 8cb9 8b3c 1786 9e3c 8c8d ca3c
00000230: 796c e23c 9d6f 8d3d cc74 833c ab9b 29bd
00000240: e6af 1fbd f985 123c 2a9d 90bb a612 9fbb
00000250: 63d7 aebc e1a5 e73b e33f e7b9 45cf 75bc
00000260: e685 faba b2b1 bfbc 4ddd 0b3d 61f1 4e3c
00000270: 8a15 a1bc e3e0 1b3c d136 54bd 670a 8a3c
00000280: bf18 963b b512 8fbc 0f09 e03b cb27 023b
00000290: c290 67bd a181 bb3c 512a 57bc 6312 27bd
000002a0: 968b e23c 2fab 84bc 7ee3 d0b9 9967 e23c
000002b0: 890a b53c 51ec 0ebc fe57 c33c 2bcf 1fbd
000002c0: c500 2e3b 4eb2 3a3c edd4 88bd c496 f0bb
000002d0: 93d7 a23b 8572 2d3d 3826 363c d1b2 25bd
000002e0: 36d5 25bb a29c a73c bb06 acbc c841 c2bc
000002f0: e754 a73c 5e4f 1f3d b2cd 0bbc 1033 3e3c
00000300: 7d7b f1bb 4881 e53c 8eca 21bd 617a e23c
00000310: b962 693c d208 a7bc 5590 50ba 71aa 0abd
00000320: 8a3d 443d 0b4d 9ebd 3452 e9ba e0fb 083d
00000330: 0ab5 d6bc 75fe 86bc ccae a2bc 014f 493c
00000340: 3799 23bc b368 c53c 18fa 52bc 7430 4d3c
00000350: a287 943c af45 bf3c 511d 383d c3c1 56bb
00000360: 065d 3cbc df2f 6a3d d938 d4bc 423c 293c
00000370: 14b4 82bc abd6 2a3d a08a c4bb aecf e9bc
00000380: 4eb0 9c3c 931d 1bbc eebf d8bc ef11 a33c
00000390: 01c1 4fbd 2e2b d63c 0ab0 51bd bc2c 143d
000003a0: b4f8 c93c 0aca 0e3c eacb 253c 8afd 433d
000003b0: 7c6f 113d 4fd6 07bc 0500 d2bc 18c8 fbbc
000003c0: e7a8 773d 9b08 893b c294 febc f2a0 5f3b
000003d0: 810b 323d 18d9 1ebc 2c6c d93c 72b9 563c
000003e0: 533e 413c d33a 363c cfb5 253d d530 b63b
000003f0: 5faa c93c 2e63 2b3d 8d1e d9bc 0ce3 10bd
0.054648556 -0.049070697 0.0010959064 -0.01890415 0.031452775 0.059208415 -0.01804583 -0.02032307
0.0085269315 0.030012554 0.06356664 0.018781397 -0.010893799 0.004332684 0.025094807 -0.009123975
-0.007580953 -0.019915491 -0.005062919 -0.007005935 0.020352192 0.028134817 -0.058066234 0.017010259
0.04821206 -0.011530892 -0.04044818 0.021144545 0.002098899 0.007727011 0.047319654 0.027961323
0.07009717 -0.0032549077 -0.00043521743 -0.0063084736 -0.048879005 0.0036858479 -0.011724697 0.017966904
-0.001396238 -0.0033556912 0.022601757 0.0055445614 0.0038114446 0.049601853 0.004883238 -0.02073571
-0.010418949 0.027370851 0.006357496 -0.0059490455 0.014031452 -0.045426857 -0.013736476 -0.022243274
-0.05389951 0.0007114557 0.016696783 0.047620006 -0.022842487 0.026546266 0.0051980484 0.044428032
0.00587956 -0.0029916263 -0.028511845 -0.016132463 -0.022680776 -0.015200382 -0.013694758 -0.036667548
-0.033064045 -0.015826251 -0.011935319 5.6286983e-05 0.024965428 -0.0122694895 0.008490811 0.03496606
-0.028745744 -0.02536035 -0.019674348 0.01458782 0.017379051 0.03337695 0.0268673 -0.010938216
-0.0026961127 0.022137504 -0.014921292 0.043504704 -0.011928421 0.008645667 -0.008808062 0.011486688
-0.016538123 -0.028513338 -0.022500025 -0.041359313 -0.022792684 0.0027886205 0.010099223 0.016010392
-0.0069289664 -0.020476785 -0.015088206 -0.027474167 0.015252176 -0.007915682 0.022123916 0.006188954
0.0060985493 -0.04698133 -0.011898141 -0.00019710763 -0.035228595 -0.023182597 -0.028551934 0.0014979659
-0.009147978 0.01688915 0.018483575 0.010095728 -0.0009802962 0.017894847 0.011681266 -0.035135437
-0.020182213 0.036307145 -0.013560863 -0.03329363 -0.0023684294 0.00077096873 -0.010771858 0.015970996
-0.0072817034 0.01705625 0.019351048 0.024725698 0.027639614 0.06906054 0.016046904 -0.041408222
-0.03898611 0.008943074 -0.0044132667 -0.004854518 -0.021342939 0.007069335 -0.00044107353 -0.01500303
-0.0019113391 -0.023400161 0.034146596 0.012630791 -0.019663591 0.009514066 -0.05181009 0.016850663
0.0045805867 -0.017464975 0.0068370174 0.0019860144 -0.056534536 0.02288896 -0.013132648 -0.04078902
0.02765445 -0.016194908 -0.00039842346 0.02763729 0.02209975 -0.008723334 0.023845669 -0.03901593
0.0026550752 0.01139505 -0.06681237 -0.0073421914 0.004969546 0.042345542 0.0111175105 -0.040453736
-0.0025304086 0.02046043 -0.020999303 -0.023713008 0.020426227 0.03889405 -0.008532928 0.011608854
-0.0073694573 0.028015748 -0.03949981 0.027646245 0.014244729 -0.020389948 -0.00079560775 -0.03385395
0.04791025 -0.077295385 -0.0017800988 0.03344333 -0.026209373 -0.016478756 -0.01985874 0.012286902
-0.00998526 0.024097776 -0.01287701 0.012523759 0.018131081 0.023348657 0.044949833 -0.00327693
-0.011496788 0.05717456 -0.025906013 0.010329308 -0.015955009 0.04170863 -0.0059979707 -0.028541412
0.019127037 -0.0094675 -0.026458707 0.019906012 -0.050721172 0.026143637 -0.051193275 0.036175475
0.024654724 0.008715162 0.010119418 0.047849216 0.03550671 -0.008290841 -0.025634775 -0.03073506
0.060463812 0.004181934 -0.031076793 0.003412303 0.043468002 -0.009695314 0.026540838 0.013105737
0.011794644 0.011122423 0.04045659 0.0055600205 0.024617372 0.041842632 -0.026503826 -0.03537278

fc1.bias f4 [128]
00000000: 4454 1e3d 395c 173d a7ae ec3c 6102 aa3c
00000010: f010 6a3c 01eb f33b 2566 6cbb da9a d5bc
00000020: 66c7 6abc 3671 14ba 620d 293b 818b ad3c
00000030: f818 ea3c a8f8 21bc 6de8 c83c 9cfd 4a3b
00000040: 2920 19bd 2a20 123d 6e9a 6e3c a368 023b
00000050: 61c0 b13c cda8 6f3b 8f59 c03c dcda 003c
00000060: 2719 683c d000 023d 6867 873d 722f 853d
00000070: 6b6e 443d 3771 233b 56d3 3c3b d856 143c
00000080: f7a6 603c 848a 203d 6c41 febc 4356 0e3d
00000090: fe18 993d 34be 2c3c 44b9 0f3d a536 8e3c
000000a0: aed3 fa3c 9872 243d b441 2fbd 9872 0fbd
000000b0: e417 8d3d fb87 2e3d bbf7 7ab9 ff80 b43c
000000c0: e92d f23c eff9 71bc 6f46 313d b2b0 593d
000000d0: 54ed 193d 370a 333c 0def 9c39 8775 873c
000000e0: 3cfa 85bb 1f07 153d c00b 9c3c b363 e43b
000000f0: f334 183d 9fdc 803a ca25 af3c 63c1 063d
00000100: 1781 293d f847 893c 4a87 4c3d 0a74 513d
00000110: 0fb3 4e3c 116e 193d 975e bc3c 4a54 f53c
00000120: df34 71bb d8a7 b23c e0e8 163d 3600 ac3b
00000130: 92b9 5e3d f32a 773d 1376 493d 2d79 033d
00000140: 087b 703d 03ad 8c3c 82af 3b3d 1209 ccbc
00000150: dd3e 6d3d 2545 b23b 63cd 7e3d 08b2 943b
00000160: 1154 be3c 17af debc 56e4 dc3c 8c58 2a3d
00000170: cb71 093d 75c0 633d 1068 7d3d 0758 013d
00000180: f13f 8a3b 0072 c6bc 29cb 323d 3db2 0bbd
00000190: e792 093d 238e 133c c063 0bbd a314 683d
000001a0: b12f be3c 6fcf c0ba ce0a 853d b5ea babc
000001b0: 5366 18bd a4a8 473c 8602 dabb 4f4a 3ebc
000001c0: 1b6d 573d bd48 c4bc c83c 9e3b 65f7 8f3d
000001d0: f06f 8c3c d419 773d f256 673d 875e 9c3c
000001e0: f375 0cbc 55f3 6cbc 7b6c 78bc 2079 a8bc
000001f0: 1e09 20bd 2c0e 033d 312a 8b3c dba9 5c3d
0.03865458 0.036953185 0.028891874 0.020753087 0.014286265 0.007443786 -0.0036071625 -0.026074816
-0.014329767 -0.00056626217 0.002579533 0.021184685 0.02857636 -0.009885944 0.024524892 0.0030973917
-0.037384186 0.035675205 0.014563186 0.0019898794 0.021698179 0.003656912 0.023480205 0.00786468
0.014166153 0.031739056 0.0661152 0.0650319 0.047956865 0.0024939307 0.002881249 0.009053908
0.0137116825 0.0391946 -0.031037055 0.034750234 0.0747547 0.010543395 0.035088792 0.01736004
0.030618515 0.040148348 -0.04278727 -0.035021394 0.068893224 0.04261015 -0.00023934145 0.022034166
0.029562907 -0.0147690615 0.04328006 0.053147025 0.03757985 0.010927728 0.00029932745 0.016535534
-0.004088668 0.036383744 0.019048572 0.006969893 0.03715987 0.0009831375 0.021380324 0.03289927
0.041382875 0.01675795 0.04993371 0.051136054 0.012615933 0.037458483 0.022994323 0.029947419
-0.0036805195 0.02180855 0.03684318 0.0052490486 0.054376192 0.060343694 0.04918487 0.032097984
0.05871108 0.017172342 0.045821674 -0.024906669 0.05792128 0.0054403716 0.06220759 0.0045378245
0.023233445 -0.027183099 0.026964348 0.04158835 0.033555787 0.055603463 0.06186682 0.03157809
0.004219048 -0.024224281 0.04365078 -0.03410553 0.033587363 0.009006056 -0.034030676 0.056660306
0.0232161 -0.0014710258 0.064962015 -0.022816995 -0.03720696 0.012186203 -0.006653133 -0.011614396
0.052594285 -0.023960466 0.004829023 0.07029609 0.01714322 0.060327366 0.056479402 0.019088043
-0.008573043 -0.014462312 -0.0151625825 -0.02056557 -0.039071195 0.031995937 0.016987892 0.053872924

fc2.weight f4 [64, 128]
00000000: 7197 c4bc d260 8cbc c257 a23d 457f 923d
00000010: ae9b 46bd 492a cbbc 71d8 74bb 4d9f b2bd
00000020: 0b77 4d3d 4246 96ba bd8c 223d f6b1 95bd
00000030: 5b20 8abc 15dc a13d b3a7 483c 281f ad3d
00000040: ee8f d9bc acb0 633d 421e 5e3d b2c8 22bd
00000050: 6168 a8bd e053 913d 67dc 8cbd d867 5ebd
00000060: 4b91 cabc 4394 3e3d e075 43bd a436 a0bd
00000070: 28ee 9cbd 9702 473b 8dc0 e8bb 985a b4bd
00000080: 1784 72bd dc30 113d 95b2 68bd af7f 60bd
00000090: d405 6f3d 549a 963d ec77 3abd b489 a83d
000000a0: 4299 c53c d2b7 1c3d b26c a5bd 804e d2bb
000000b0: d711 973d 5406 01bd 716a 42bb 7c3a a73d
000000c0: 4d19 bfbc 4fb2 f7bc d1bc aebc e61e 703c
000000d0: 294b 6ebb 78a6 12bd 1af2 5bbd 3aa9 89bc
000000e0: 2408 0b3d d19d c7bb 5218 b2bc 6636 73bd
000000f0: be81 133d 364e 913d ed68 883d 62cb 9abd
00000100: 29c3 9fbd 6d18 893d bb87 acbd 5d37 29bd
00000110: 2f4d 1a3d 88de 513d 6ba2 72bd b69b 5c3c
00000120: f748 9d3d 6409 96bd b97f 60bd 6a1b adbd
00000130: 1cd5 b53a 7639 083b 8565 953c 4326 f7bc
00000140: 4e70 073d c1e0 e43c aabd 60bd 1bb4 6e3d
00000150: cf1d 0abd 5bb0 9ebd befb ffbc f586 1d3d
00000160: c354 203d a5f9 2abd 695d dfbc 3c6b b8bd
00000170: d098 68bc 821f 3dbd 6d49 903b 0872 3abd
00000180: 3abc b4ba f6ad ae3d aa71 abbd 7d56 b3bd
00000190: e522 b4bc fb03 3c3d 4bb6 3bbd 4a34 753c
000001a0: 7c26 ecbb 21fb cbbb 4939 7d3c e4b7 97bc
000001b0: ac2f 6f3d 1505 443d 0cd5 873c a51b 70bd
000001c0: be8f a53d b16a fbbc 9ce3 1e3c 5d6a f33c
000001d0: ee0a 943d dc22 27bc 8a2c cbbc 9c01 9abd
000001e0: ea80 1bbd a2b9 a03d e511 79bc 25d8 f1bb
000001f0: 9053 3ebd 6f7e f8bc e4f7 0cbd e9be 87bd
00000200: debb de3d 3307 113a 7db5 963d e347 673d
00000210: 8a41 a43d dd3a 8f3d 7539 8f3d 1429 74bd
00000220: 069c 713b 7ac6 073c 159c 7dbd bdb9 28bd
00000230: 918c 963d d0df 853c 3280 413d 1c5a cc3c
00000240: bca6 ac3d a5e2 923d 361d 2dbd 0da0 be3d
00000250: 96b4 9dbc 2932 09bd e73a b13c bde1 f0bc
00000260: daf9 9fbc 8d8f a23d 4514 21bd fafe 9b3c
00000270: df37 25bd 814e e8bc a2f6 243d cecb 7cbd
00000280: f187 63bd d664 953d b27f 90bb db73 ba3b
00000290: 61f8 b13d 4506 75bd c6d9 2d3d 1515 863c
000002a0: 82f0 fd3d c8d6 4a3d 4ab8 b9bc b866 78bc
000002b0: fe68 ec3d f9e3 943d 97a9 e8bb 154e de3a
000002c0: 690f e13c 0daa d1bc 1c64 36bd c88c 7d3d
000002d0: 9098 e03d c37e 7e3d 14c8 eebc 0897 7f3d
000002e0: 5be8 5e3d f543 10bd 7377 d93c db0f 413d
000002f0: 2904 5a3d 1099 60bd 33f0 d039 98d8 ec3d
00000300: d1cc d33d 492c cf3d ce11 3f3d 1bd1 9d3d
00000310: 7d89 16bd fbe5 323d 10a3 433d ca3d 663c
00000320: 3542 1f3c ed71 eabc 2572 6f3d 66f3 e43c
00000330: 1e95 cdbc 3bc4 02bd 35c3 153d 0c10 d03c
00000340: f691 7c3c d50f e0bc c1eb 793d 2557 83bd
00000350: e476 f83d 616a 62bd 97e3 ee3c 2f5b a23d
00000360: fd21 00bd 9318 0a3d bc19 443b 8b38 e43c
00000370: fbd9 7e3d 0cb6 8e3d ebdc db3c f6b2 bf3c
00000380: fdd9 043d c234 ba3d c4b9 bc3d 5303 e93c
00000390: 3faa cf3d 64c3 f4bc 0b49 893c e65e a33d
000003a0: 4d46 24bd 58bb 12bd dc19 4fbd 723c 89bd
000003b0: eef8 733d a883 5b3d 9c80 1fbd daf0 393c
000003c0: 5ee1 773b 5313 bdbc 8452 87bd befe 423d
000003d0: 68e4 38bd 2b56 633d 11d2 1abd ef91 ad3d
000003e0: 7194 3e3b efa8 3cbb 57a8 473d 3671 a0bd
000003f0: fc7e 37bd c027 f93d 8fcd 683d fbbd aa3d
-0.023997994 -0.017136011 0.07926895 0.07153181 -0.04848831 -0.024800437 -0.0037360454 -0.087217905
0.050162356 -0.001146503 0.039685 -0.07309334 -0.016861131 0.079033054 0.012247014 0.08453208
-0.026557889 0.05558841 0.054228075 -0.03974218 -0.08223034 0.07096076 -0.06877976 -0.054298252
-0.024727484 0.046528112 -0.047719836 -0.07822922 -0.07662612 0.0030366534 -0.007103032 -0.08806342
-0.059208002 0.035446987 -0.056810934 -0.05480927 0.058355168 0.073536545 -0.045524523 0.0822939
0.02412093 0.038261242 -0.080773726 -0.0064180493 0.073764496 -0.031500176 -0.0029665495 0.08165452
-0.023327494 -0.030236391 -0.021330269 0.014655804 -0.0036360717 -0.03580329 -0.053697683 -0.016804326
0.03394331 -0.006091811 -0.021740112 -0.05937805 0.036012404 0.07094996 0.06660638 -0.075583234
-0.07800896 0.06694112 -0.08424326 -0.041312564 0.037671264 0.051237613 -0.059236925 0.013464859
0.076799326 -0.0732601 -0.054809306 -0.084524944 0.0013872716 0.0020786203 0.018236885 -0.030169612
0.033066086 0.027939202 -0.054868378 0.05827723 -0.033719834 -0.07748481 -0.03124797 0.038458783
0.039143335 -0.041741986 -0.027266221 -0.09004828 -0.01419659 -0.046172626 0.0044032843 -0.045518905
-0.0013789006 0.08529274 -0.08371289 -0.08756731 -0.021989295 0.045902234 -0.045828145 0.01496608
-0.007206736 -0.0062250053 0.015455552 -0.018520303 0.058395073 0.04785641 0.01658108 -0.058620114
0.08084057 -0.030690523 0.009697821 0.029713804 0.07228647 -0.010201182 -0.024801511 -0.07519838
-0.03796474 0.07847907 -0.01520202 -0.0073805028 -0.04646641 -0.030333726 -0.034416094 -0.0662821
0.108756766 0.0005532384 0.07358835 0.05646504 0.08020313 0.06993649 0.06993381 -0.059609488
0.003686668 0.008287067 -0.06191643 -0.04119276 0.0735103 0.016342074 0.047241397 0.024945311
0.084302396 0.07172135 -0.042264186 0.09307871 -0.01925115 -0.033495102 0.021634532 -0.029404515
-0.019528318 0.079375364 -0.03932597 0.01904248 -0.040336486 -0.028357746 0.04027427 -0.0617178
-0.055549566 0.072946236 -0.0044097537 0.0056900806 0.08689953 -0.059820432 0.042444013 0.016367475
0.12399389 0.049521238 -0.022670884 -0.015161209 0.11543463 0.07270045 -0.007100295 0.0016960526
0.027473168 -0.025593782 -0.044529065 0.061901838 0.10966599 0.06213261 -0.029148139 0.062399894
0.05442081 -0.03522106 0.026546216 0.04713426 0.053226624 -0.05483347 0.00039851814 0.115647495
0.103418 0.101158686 0.04664784 0.07705899 -0.036752213 0.043676358 0.04776293 0.014052818
0.009720375 -0.028618777 0.058458466 0.027948093 -0.025095519 -0.03192542 0.036563117 0.025398277
0.015415659 -0.0273513 0.061015848 -0.06413106 0.121320516 -0.055277232 0.029161258 0.07927548
-0.031282414 0.033714842 0.0029922565 0.027858993 0.0622196 0.069683164 0.02683874 0.023400765
0.032434452 0.09092094 0.092151195 0.028443968 0.10139894 -0.029878326 0.016758462 0.07977085
-0.040106107 -0.035823196 -0.05056177 -0.06700982 0.05956357 0.053592354 -0.03894101 0.011348927
0.0037823538 -0.023080504 -0.066075355 0.047606222 -0.0451397 0.055502098 -0.03779799 0.084751
0.0029080177 -0.0028787216 0.048744526 -0.07834093 -0.044798836 0.12165785 0.05683666 0.08337017

fc2.bias f4 [64]
00000000: dbde e03c 457e 4b3d 701f aa3d 1b1e 053d
00000010: 69b7 063d 86a7 b7bb 5f4d 66bd 28f9 efbc
00000020: 63fa 283d 1d0f 34bd 2452 1cbc 5950 f93d
00000030: 4de2 073d bebf bf39 0113 2d3d d5c7 003d
00000040: 00b5 5cbd 3804 0b3c 4492 943d a46b bc3d
00000050: 9e20 9b3d 07ec 243c 8ee3 83bc e689 db3c
00000060: 824c cd3d e6ab c73d a228 833d 9187 9e3d
00000070: bdbc 333d 7f90 b0bd c4eb 18bd 0790 c3bd
00000080: f610 6bbd 4e61 bb3b fe3d 06bd 1bb7 84bd
00000090: 0a7c 1a3d b0a4 30bc 51fb 453d 07fb 5f3d
000000a0: 06ef 7dbd b349 a7bd 7d28 b8bc cc63 153d
000000b0: 9838 5cbd 8cb4 c03c ccd8 3dbd 28e6 40bd
000000c0: afba f43d c136 2f3d 3a59 d33d 9c7d 5fbd
000000d0: 875f e53d 34e1 0f3c 0094 ab3c 9ab1 2cbd
000000e0: 4d70 893d a33e 92bc d72c 133b 0731 15bd
000000f0: 281d 1fbd 40ca d2ba 2d36 e23d ed52 213d
0.027450016 0.049680967 0.083067775 0.032499414 0.032889757 -0.005604687 -0.05622613 -0.029293612
0.041254412 -0.043959726 -0.009541068 0.12173528 0.0331748 0.00036573218 0.04225445 0.031440575
-0.053883553 0.008484893 0.072544605 0.09200218 0.075745806 0.010066039 -0.016099717 0.026799154
0.10024358 0.09749584 0.064042345 0.07740701 0.043881167 -0.086213104 -0.03733422 -0.095489554
-0.057389222 0.0057183867 -0.032773964 -0.06480237 0.03771595 -0.010781452 0.048335377 0.054682758
-0.06199553 -0.08168354 -0.022480244 0.036472127 -0.05376491 0.023523591 -0.04634933 -0.047094494
0.119496696 0.042776827 0.10319753 -0.05456315 0.11199861 0.00878172 0.020944595 -0.04216156
0.06710873 -0.017852133 0.0022457147 -0.03642371 -0.038846165 -0.0016082004 0.110454895 0.039385725

action_head.weight f4 [20, 64]
00000000: 8df8 c93d 5e23 fcbc e052 293d 8497 ed3d
00000010: df55 ca3c 3c81 12bd c096 81bd eec9 3bbd
00000020: de94 b93c 653f abba 426d f73c d162 9ebd
00000030: 0335 b0bc 43dc 0ebb b596 c0bd 66b4 a0bd
00000040: 7d0b 423d 2499 143e 1b35 2fbd a22f c4bc
00000050: ffa7 a73d 5815 cbbd 5ddd ccbd a438 7fbd
00000060: ee1a 27bc 920c d93d 3e7b 27bd 308a f53c
00000070: 3750 b2bd a0b4 e13b fb81 da3d ab3e 623d
00000080: e434 253c 1a6b da3a c229 233c 9afe d63d
00000090: b237 d73d b4a6 1d3d 35c9 edbd 0e17 c63c
000000a0: 4bd4 ac3d 4890 8fbd d2aa c43d 19d0 a0bd
000000b0: e84b b53c 57c4 83bd 70cc d83c 0cbd cb3d
000000c0: b065 36bd 93f6 bb3d 6b36 023e 46db c2bd
000000d0: f0d4 8a3c 8656 bb3d 39af f33b d698 ec3d
000000e0: 4fa0 7ebd 6c26 c5bd 8627 8bbd 69f6 bb3c
000000f0: 58bd 133d c265 aebd 8312 b4bc 85c8 b3bd
00000100: 544a d0bd 3a9b b4bd 24d7 a1bd f8f8 45be
00000110: 22a1 11be a124 9ebb 307d f13c 0a65 34bd
00000120: eb97 89bd 8ea8 5d3d 3ff4 acbd f67c 26be
00000130: 2959 c7bd 1b45 26bd a61e 093d ed04 923d
00000140: 82e9 d6bd ada7 3fbd 5667 07bd fae4 4dbc
00000150: 9346 8fbd d302 003d ce32 18be 562b f43c
00000160: 2fc8 5ebe d14a 12be 8abd c2bd b6ee e2bd
00000170: 6dd9 80bd 5e8c a93d a82c 09be 536b eebd
00000180: 965a 38bd 9d03 963d 5dad 233d 1c1f a33c
00000190: 6126 3ebd 338e fabd 88c5 e4bd f903 a1bd
000001a0: 1d77 f33c 70f4 7dbd ccd0 003d 5027 debd
000001b0: 6aaf e83d 8778 41bc 10fd 62bd f34f 1d3b
000001c0: 71f2 fcbd 3754 2b3c cdc1 e0bd 2064 d5bc
000001d0: ead2 1fbe 6155 2dbd 2f64 dfbd 1ff5 eebd
000001e0: 4e85 48bd c95c 43be 88ba c43d 5a77 10be
000001f0: 186e 00be beb2 3a3d 7540 49bd 476f 11be
00000200: b715 9ebd 59b1 adbc 2316 fabd 4605 94bd
00000210: 93ff d53d 17b2 25bd e8c9 a3bd 69a9 75bd
00000220: 7ce4 743d a15d a73d fa85 2d3d 4cc5 613d
00000230: 7fa9 d8bc bfe6 39bd 3c59 033e db9e df3d
00000240: eb1e 2b3d 207f 5bbd fb25 c2bc da1f eebd
00000250: 3e18 ba3d 9f39 85bd 1fa9 6fbd 90d7 26bd
00000260: 24f1 bd3d 3634 653c 485c 8bbd 1dc4 af3d
00000270: 3567 a73d 2058 0f3d 25a3 c73d 14b7 0cbd
00000280: 905b f1bc 35f2 bebc 959e 913d 027e 053d
00000290: 070f a5bd 205d b6bc 132c bbbd 4e43 a43d
000002a0: d1e6 ebbc 5081 3e3c 5048 cbbc 1bf8 80bc
000002b0: 7047 02bc 885c 973d 0030 153a 1b63 9fbd
000002c0: b00f a6bc cf25 49bd 6f1b c33d 409c 67bc
000002d0: f254 aabd 7fa3 b23b 04bd 3a3d 87a2 cdbc
000002e0: 958c 97bd 3a8f f3bd 4999 6ebd c104 b93c
000002f0: c577 663d 3022 243d 97bb 7cbc 2197 9f3d
00000300: eeb5 493d cc94 e3bd 313d be3c 7539 e5bc
00000310: f59c 31be 2b1a 3f3d 003e e3bd cbed e9bd
00000320: ec3b 1abe 5d25 33be e869 79bc 48e9 4fbe
00000330: 1843 b0bd 7d8e 21bd e668 66bc f13c f23d
00000340: 925a 28bd 4ca7 dcbd 9b49 bb3d d9bd cd3c
00000350: ad75 66bd 2c52 0bbd c670 08be 70a4 8c3c
00000360: a05b 02be 677c 15be cf6c e0bc 4458 39be
00000370: 7fdb d3bc d0ea dd3c 738f 2ebe 0ee4 143d
00000380: 657e d23c 2158 60bd e635 4bbe 057c cfbc
00000390: 0f63 743d 47ea 2dbd d29b e9bd 6e5a cbbd
000003a0: 81d6 213d 800a fbbc 58a5 4e3d 3282 60bd
000003b0: 80aa 1cbc 32de 3abe 922b d53d 7ca3 b63c
000003c0: 3dc9 f1bc 2cf2 30be bc77 65be 9846 99bd
000003d0: 2d07 efbc ecf2 6a3c 5e9a 253d d4e5 c93d
000003e0: bd39 fe3d 6d01 5b3c 735c ba3d 2902 86bd
000003f0: 3712 b73c 495c 753d 2a9a 5cbd 9ca3 4abd
0.098618604 -0.030778583 0.0413388 0.11601165 0.02469915 -0.03576778 -0.063275814 -0.045846872
0.022653993 -0.0013065158 0.030203465 -0.077336915 -0.021509653 -0.0021798767 -0.09403745 -0.07846908
0.047374237 0.14511544 -0.042775255 -0.023948494 0.081863396 -0.0991618 -0.10003159 -0.062309876
-0.010199292 0.10598101 -0.040889017 0.02997312 -0.08706706 0.0068879873 0.10669323 0.055235546
0.010083411 0.0016663999 0.009958686 0.1049778 0.1050867 0.03848906 -0.11610643 0.024180915
0.08438929 -0.07009941 0.09602894 -0.078521915 0.022130921 -0.06433933 0.02646467 0.09948167
-0.04453057 0.0917789 0.12716071 -0.09514479 0.01694724 0.091473624 0.0074366597 0.11552589
-0.0621646 -0.09626469 -0.06794648 0.022944646 0.036069244 -0.085155025 -0.021981483 -0.087784804
-0.10170427 -0.088186696 -0.07902363 -0.19333255 -0.14221624 -0.004826144 0.02947864 -0.04404167
-0.06718429 0.054115824 -0.08445024 -0.16258606 -0.09733803 -0.040593248 0.033476494 0.07129846
-0.10493757 -0.046790767 -0.033057533 -0.012566799 -0.06995883 0.031252693 -0.1486313 0.02980582
-0.21756051 -0.14286353 -0.09508808 -0.11080687 -0.06291471 0.08278726 -0.13395941 -0.11641564
-0.045008264 0.07324908 0.039960254 0.019912295 -0.04642332 -0.122341536 -0.111704886 -0.07862086
0.029719884 -0.062000692 0.031449124 -0.10847342 0.113615826 -0.011808521 -0.05541712 0.0024003952
-0.123509295 0.01045709 -0.109744646 -0.02604872 -0.15607801 -0.04231775 -0.109077804 -0.11667847
-0.048955254 -0.19078363 0.096058905 -0.14108029 -0.12541997 0.045580618 -0.049133737 -0.14202605
-0.077189855 -0.02120273 -0.122112535 -0.07227568 0.104491375 -0.040453043 -0.07997495 -0.059976015
0.059788212 0.08172155 0.042364098 0.055119798 -0.02644801 -0.045386072 0.12827009 0.10918971
0.041777533 -0.053588033 -0.023699751 -0.11627169 0.09086655 -0.06505131 -0.058510896 -0.04073292
0.092745095 0.013989499 -0.068047106 0.085823275 0.08173982 0.034996152 0.09747914 -0.034354284
-0.029462606 -0.023308853 0.07110325 0.032590874 -0.08059507 -0.022261202 -0.09139266 0.0802065
-0.028796585 0.01162751 -0.024814755 -0.015743306 -0.007951602 0.07390696 0.00056910515 -0.07782575
-0.020271152 -0.049108323 0.09526717 -0.014136374 -0.08316983 0.005451619 0.045590416 -0.025101913
-0.07399861 -0.11892553 -0.058251653 0.022585275 0.056266565 0.040071666 -0.015425584 0.077924974
0.049245767 -0.11112365 0.023222538 -0.0279815 -0.1734503 0.046655815 -0.1109581 -0.114223085
-0.15061921 -0.17494722 -0.015223004 -0.20303833 -0.08606547 -0.039442528 -0.014063096 0.1182803
-0.041102 -0.10774097 0.091448985 0.02511494 -0.056264568 -0.034013912 -0.1332427 0.017168254
-0.12730265 -0.14598237 -0.027395634 -0.18100077 -0.0258615 0.027089506 -0.17046909 0.036350302
0.025695035 -0.054771546 -0.1984478 -0.025327692 0.059664782 -0.042459752 -0.114066735 -0.099293575
0.039511207 -0.030644655 0.050450653 -0.054811664 -0.009562135 -0.18248823 0.10408701 0.022294752
-0.029514903 -0.17279881 -0.22408956 -0.07484168 -0.029178226 0.014340144 0.04043042 0.09858289
0.124133565 0.013367039 0.090996645 -0.06543381 0.022347553 0.059902463 -0.05385796 -0.049472436

action_head.bias f4 [20]
00000000: 6a93 f6bb 6e6c bcbd 2e0f 153d ebd5 3fbd
00000010: ffb1 e93d 25bc 1bbe 8e8c c5bd 5019 04bd
00000020: 24a6 65bd 1328 94bc fbbd 0d3d 0d1c a33c
00000030: de80 91bd 30dd 24bd 0dac ae3c 52fc 833d
00000040: 2872 07be 2d28 a73d 9d82 173d cafd c5bd
-0.0075248973 -0.09200369 0.03639143 -0.046834867 0.11410903 -0.1520849 -0.09645949 -0.032250702
-0.056066647 -0.018085515 0.034605008 0.019910837 -0.071046576 -0.040250003 0.021322275 0.06444611
-0.13227141 0.0816196 0.036989797 -0.09667547

value_head.weight f4 [1, 64]
00000000: 34df 42bd 537c ca3d 0c6c e3bd db4e c63c
00000010: 3977 9b3d 2ec8 8bbd 2001 da3b 0aa2 f1bd
00000020: f40f e23d 2381 a13c 8733 87bd 17cc 023e
00000030: 1642 34bd eb9e 2dbd ba85 0dbd cfd7 adbd
00000040: 94da 4bbd 15c2 6e3d 1935 edbd 7374 4d3d
00000050: 34d9 fe3d 22ad ee3c 72aa 0f3e 2160 c4bd
00000060: e3ec fc3d 0370 963d 400e bdbd 7412 8d3d
00000070: 6525 62bd c00e 7dbd 1721 9e3d eec9 a2bd
00000080: c9f9 23bd 1d7f 17bc 8e4e 813d 070b 3bbd
00000090: 2831 ddbd 3d45 cc3d c9c9 c2bd 3b98 da3d
000000a0: 2d57 84bd a2b8 e63d 301e 763d 1f73 b7bd
000000b0: 90f6 6abd 81ef 293d f2f1 d23d 4b77 f93d
000000c0: b12a 353d b34b 9f3d f04e d93d e2c3 ebbd
000000d0: 379e 013e 1c61 40bd 7e8c 96bd e24d ecbd
000000e0: 96c8 b6bd bee5 173d ff70 e8bd 9929 e03c
000000f0: 8417 933d 8d98 99bd f5ae aa3d bba2 8c3d
-0.047576144 0.09886994 -0.11104593 0.024207523 0.07591099 -0.068252906 0.006652966 -0.117984846
0.11038199 0.019714897 -0.06601625 0.12773167 -0.044008337 -0.042387884 -0.03455136 -0.08488428
-0.049769 0.05829056 -0.11582393 0.050159883 0.12443772 0.02913529 0.14029863 -0.09588648
0.1234987 0.07345583 -0.092312336 0.06888285 -0.055211443 -0.061781645 0.07721155 -0.07948671
-0.040033136 -0.009246615 0.06313811 -0.045664813 -0.108003914 0.09974144 -0.09511144 0.10673567
-0.0646194 0.11265685 0.060087383 -0.089575045 -0.057364047 0.041488174 0.10300054 0.121809565
0.044230167 0.0777811 0.10610759 -0.11511971 0.1265801 -0.04696761 -0.073510155 -0.115382925
-0.089249775 0.037084334 -0.11349677 0.027363585 0.071822196 -0.074998 0.08334152 0.06866976
