latest.pth (torch, 471823 bytes, 7 tensors)

fc1.weight f4 [128, 800]
000000 ed e0 03 3d 93 0c 5f 3b b9 ba af bc 3c 5c 5d 3c
       0.032196928 0.0034034594 -0.021451341 0.01351076
000010 56 68 67 3c 05 aa ba bc fb 31 b8 3c 8d 3a b9 3c
       0.014123997 -0.02278615 0.02248477 0.022610927
000020 28 e8 c3 3c 3a c1 85 3b 72 bf ac 3c 3e 0f af bc
       0.023914412 0.0040818723 0.021087382 -0.021369573
000030 fd af 56 bc 46 9e 12 bd 0c 61 fc 3b cc 56 0d 3d
       -0.013103482 -0.035795473 0.0077019986 0.034506604
000040 3b bb 97 bb 33 05 4d 3c eb 80 15 3d 06 ff 8e bc
       -0.004630474 0.012513447 0.0364999 -0.017455589
000050 8b 89 10 bc 3b 61 47 3c 17 f6 d0 bc 50 07 0d bd
       -0.008821855 0.012169178 -0.02550797 -0.034430802
000060 64 f9 03 bc c8 be c1 bc 93 58 11 3d 98 6c b3 3c
       -0.008055065 -0.023650542 0.03548486 0.021902367
000070 d5 5e d9 3a 54 c2 eb 3c f9 37 ef bb fe 88 c2 bc
       0.0016584048 0.028779186 -0.0073003736 -0.023746964
000080 c6 28 22 3c 33 64 cb bc 93 9d 5d 3c ab 2a 83 ba
       0.009897416 -0.024828052 0.013526338 -0.0010007223
000090 41 36 91 3c 6a 8f 22 3c ae c3 53 bb c7 26 bd bb
       0.017726066 0.009921888 -0.003231268 -0.005772445
0000a0 53 ee e1 bb d7 53 14 bb 63 ee 24 bc 71 19 23 bc
       -0.0068948655 -0.002263298 -0.010066601 -0.009954796
0000b0 05 c7 55 ba 4e 31 86 bc 01 70 a8 3c 21 d4 82 3c
       -0.00081549614 -0.016380932 0.02056122 0.015970292
0000c0 33 76 a0 3c a7 a0 df 3c 46 ba 0d 3d af 8c 56 bc
       0.019587612 0.027298285 0.034601472 -0.013095065
0000d0 5f e0 a9 bc 91 bc e0 bb bc 05 93 3b 7c c4 26 bb
       -0.020736871 -0.0068584164 0.0044867676 -0.0025446704
0000e0 9c fd d8 3c 3d 3a 62 3b 7e dd b3 3c 4b fe 02 3d
       0.026488118 0.0034519576 0.021956202 0.031980794
0000f0 03 09 86 3c c3 a3 e5 bc 8b 36 01 bd b4 97 e8 3c
       0.016361719 -0.02803219 -0.031546157 0.02839265
000100 7d 7c 1b bc fe 67 d8 bc d4 dd 74 bc c0 a2 f0 3c
       -0.00949013 -0.026416775 -0.014945466 0.02937448
000110 e5 df 7d bc a9 2e 0c bd de 5d d8 bb 81 87 6e bc
       -0.015495275 -0.034224186 -0.0066029867 -0.014558674
000120 30 88 0e bd 38 59 a8 3c a4 b1 f6 bc c3 ef c1 3b
       -0.034797847 0.020550355 -0.030114003 0.0059184744
000130 44 e6 09 3d ff 09 c5 bc 0d 50 54 3b 7a 95 8b 3a
       0.033666864 -0.024052618 0.0032396347 0.0010649406
000140 8f 4c c1 bc 07 4c fd bc 9b 2d fe 3c 74 b0 ac bc
       -0.023596076 -0.030920042 0.031027606 -0.021080233
000150 f9 20 53 3c 8b 2a e1 3b b9 7e 30 3b 51 7c e9 ba
       0.012886279 0.0068715266 0.0026931001 -0.0017813538
000160 3f 87 0f bd c3 13 72 bb 48 8a 00 bd db d9 0f bc
       -0.03504109 -0.0036938048 -0.031381875 -0.008779968
000170 38 62 1c bd ed 2d 5b 3c 70 3a 8c ba 96 d3 11 bd
       -0.038179606 0.013377649 -0.0010698568 -0.035602175
000180 3b 04 80 3c f3 28 90 bc 42 52 85 bb 4b 43 43 3c
       0.015627017 -0.017597651 -0.004068644 0.011917899
000190 cb a5 09 3d 19 a9 bb 3c 62 68 04 3c fb 88 c5 3c
       0.033605378 0.02290778 0.008081527 0.024113169
0001a0 d9 ea d9 b9 20 3f 74 bb fb 0c 41 3b e1 a5 64 3c
       -0.0004156444 -0.003726907 0.00294572 0.013955564
0001b0 4c 56 c6 3c 11 49 7b 3b a4 ed 30 bc f1 33 05 bc
       0.024211071 0.0038343112 -0.010798845 -0.00813006
0001c0 8a 8c b2 3c ce 3b 47 3c 71 5b 60 bc a7 9a 22 bc
       0.02179553 0.012160255 -0.013693676 -0.009924567
0001d0 0b 8c 84 bb 4b fe 88 3c 43 1c fb 3c 3a c5 0f 3c
       -0.0040450147 0.016722819 0.030653125 0.00877505
0001e0 68 9b b3 3c 34 b3 98 3b d9 b3 4d 3c 0b 2e d5 3c
       0.02192469 0.0046600346 0.012555086 0.026022932
0001f0 c1 8f 3a 3c 3c 8a 35 bc 37 5a 55 3b e8 62 08 bd
       0.011386813 -0.011080321 0.0032554993 -0.03329745
000200 1c 9a f1 3c fe f9 0d bd 56 6a 9d 3c fd b1 73 3b
       0.02949243 -0.03466224 0.019215744 0.0037184947
000210 67 eb 03 3d a9 0e eb bc a7 94 a9 bb dc 7a 95 bc
       0.03220692 -0.028693514 -0.0051751914 -0.01824706
000220 af 72 16 bd ab 6c 17 bd e8 cd b8 3c 1c ec 9e 3c
       -0.036730465 -0.03696887 0.022559121 0.019399695
000230 da 63 ec 3c ec 86 c0 bc ab d8 15 bd 98 74 8c bb
       0.028856207 -0.023501836 -0.036583584 -0.00428636
000240 ef 4e 52 bc ee 7e 88 bc b6 ce 8b bc 31 d5 0a bc
       -0.012836202 -0.016662087 -0.01706634 -0.00847368
000250 5a 2f 9a bc 07 6e 4f ba 4e 4d df bb 13 b9 02 bd
       -0.018821407 -0.00079128187 -0.0068146354 -0.03191478
000260 bf d6 09 bd 58 cc aa 3b 90 85 ed bb 74 f5 ed 3b
       -0.033652063 0.005212348 -0.007248588 0.0072619263
000270 54 4f 2b bc 1e b5 82 bc fd e7 8c 3c 17 96 46 3b
       -0.010455925 -0.015955504 0.017200464 0.0030301863
000280 71 7d 62 bc a8 6b cb bc 73 92 de bb 1b 25 45 bc
       -0.013823853 -0.024831608 -0.0067923605 -0.012032772
000290 8c 29 5e 3c 11 5d a3 bc 51 43 1f bd 7d c8 65 bc
       0.01355971 -0.019941838 -0.038882557 -0.014024851
0002a0 60 66 dd bc a2 6a 62 bc 62 84 2e bc 87 bc bc bb
       -0.027026355 -0.013819369 -0.01065168 -0.005759779
0002b0 33 f9 16 bd fd f5 59 3c 9b 59 ad bc d7 50 58 bc
       -0.03685875 0.013303277 -0.021160891 -0.0132028675
0002c0 ab a4 31 3b ca c8 9b bb 3d 6d 0f bd e8 1d 3e bc
       0.0027106206 -0.0047541605 -0.035016287 -0.01160381
0002d0 36 c5 b5 3c 24 98 14 bd 60 cf dc bc 4b 27 f9 bc
       0.022188764 -0.036277905 -0.026954353 -0.030414244
0002e0 45 eb ab 3c 15 5f 83 3c e1 52 a6 3c a1 4b 48 3c
       0.020986209 0.01603655 0.020303192 0.012225063
0002f0 de 21 2a bc 79 ca 3c bc ac 8a 92 3b 30 e1 8f 3c
       -0.010384051 -0.011522883 0.0044720974 0.017563432
000300 62 a8 a9 bb 17 a1 9a 3c 58 52 0b bd cf 00 07 3c
       -0.0051775435 0.018875642 -0.034014076 0.008239939
000310 0e b4 66 bc 2e d8 55 3c a1 77 69 3c 82 f9 ed 3c
       -0.014081014 0.01305203 0.014249713 0.029049639
000320 8f 97 82 3b 31 63 10 bc 0b 24 15 ba 5a e0 45 3c
       0.0039853523 -0.008812712 -0.000568927 0.012077415
000330 c7 08 a3 bc bb 71 ef bc 5e 60 04 bd 52 ad f2 3c
       -0.019901646 -0.029229036 -0.032318465 0.029623661
000340 f1 db 55 3c 89 7f 79 bc 9e fe f1 bc 18 06 ba 3c
       0.013052926 -0.015228161 -0.029540356 0.022707984
000350 d6 0f da bc ec 52 c9 bb b5 4c e3 bc 07 d3 f4 bc
       -0.02661888 -0.0061439183 -0.027746538 -0.029885782
000360 ba 71 bb bc ed 28 fb 3c b8 65 48 b9 84 86 d2 bc
       -0.022881377 0.030659163 -0.0001911138 -0.025698908
000370 0c 28 de 3c 42 b9 10 bd 1c bb 1b bd 6f 78 0e 3c
       0.027118705 -0.035332926 -0.03802024 0.008695706
000380 99 0d 38 3c f3 b0 57 3c 93 e8 e9 3c 1f 0b 56 bc
       0.011233711 0.013164747 0.028553283 -0.013064175
000390 77 38 90 bc 10 e7 e9 bc e5 6a c6 bc dd 1b bd 3c
       -0.01760505 -0.028552562 -0.024220893 0.023084575
0003a0 c3 0a 1f bd a0 35 e3 3b 0d bb 8d bc 68 85 9a 3b
       -0.038828623 0.006933883 -0.017301107 0.0047156103
0003b0 06 39 d2 3c 1c 2d ac 3a e7 5a d2 bc 80 43 04 bc
       0.025661957 0.0013136002 -0.025678111 -0.008072734
0003c0 87 17 0e 3c ac 48 d1 b8 19 d5 8e bc e9 be 66 3c
       0.008672602 -9.979433e-05 -0.017435597 0.0140836025
0003d0 28 d4 cd 3c 9f 06 15 bb dc ae a1 3c 06 f2 9a bc
       0.025125578 -0.0022739542 0.0197367 -0.018914234
0003e0 e4 aa 79 3c 62 6a cf bc 98 74 06 bd c3 e5 4e 3c
       0.015238497 -0.025319282 -0.032826036 0.012628022
0003f0 69 15 2a bc 3b a9 62 ba 97 0c 3b 3c 80 0c 7f ba
       -0.010381081 -0.0008646433 0.011416576 -0.00097293407

fc1.bias f4 [128]
000000 bb fd ab 3c 1c 63 06 3d 1c 5f 03 bd 17 73 52 3c
       0.020995012 0.03280936 -0.032073125 0.012844822
000010 0d e9 d6 bb 06 b1 05 3d d9 c4 32 3d 21 66 a6 3c
       -0.0065585435 0.032639526 0.04364476 0.02031237
000020 c6 f0 34 3d 1a 2f 21 3d 10 82 bc 3b 79 14 09 3c
       0.044174932 0.03935156 0.0057528093 0.0083666975
000030 2b 95 10 3d c8 1c b6 3b b3 be e7 bc 94 bc 38 bb
       0.035298508 0.00555763 -0.028289175 -0.0028188573
000040 dc 43 36 bc 72 a9 5a bb 21 a7 13 3d c7 f8 c9 3b
       -0.011124577 -0.0033365157 0.03604806 0.00616369
000050 ea 42 6c bc d2 4e 6f bb a7 52 ef bc 7d 71 84 bc
       -0.01442025 -0.0036515486 -0.029214216 -0.016167397
000060 d5 ed 0b 3d b9 59 71 bc 9b 7b 23 3d 33 4f 1e 3c
       0.03416236 -0.014730864 0.0399128 0.009662437
000070 7e 20 bc bc e2 b2 a5 3c 03 ff 15 3d e9 7f e6 3c
       -0.022964712 0.0202269 0.03662015 0.028137164
000080 1c 47 01 ba 68 5e 01 bd 21 e2 52 3c 70 1b c9 3c
       -0.00049315556 -0.031584173 0.012871296 0.024549216
000090 f7 03 87 bc bb d5 ba 38 34 8a 9f bb 18 13 1a 3c
       -0.016481383 8.9089815e-05 -0.00486877 0.009403966
0000a0 e6 11 d7 3c a7 72 05 3d 11 9f 55 bc 2b 8d ba bc
       0.026253652 0.032580044 -0.013038413 -0.022772392
0000b0 f2 77 80 bc da 9d 65 3c 26 25 0c bd 24 c4 76 3c
       -0.015682194 0.0140146855 -0.034215115 0.015061412
0000c0 9c 2e 7a 3b fa 07 2a bc d3 96 94 3c 94 e8 a5 3b
       0.0038174754 -0.010377878 0.018138325 0.005063126
0000d0 81 61 46 bb ad 85 df bc 5c 93 ae 3b 76 d1 a5 3c
       -0.003027052 -0.027285421 0.005327625 0.02024148
0000e0 8d ac c3 3c 86 17 08 bc 16 a9 f4 3c ea 5e 2c 3c
       0.02388599 -0.00830639 0.029865783 0.010520676
0000f0 8f 93 67 bc 3d 59 fc bc ce 11 97 bc c4 31 2c 3d
       -0.014134302 -0.03080427 -0.018441107 0.042039648
000100 2b 9f ba bb 0d e8 02 bd ba 3d be 3b ec c3 c9 3c
       -0.005695244 -0.031959582 0.005805698 0.024629556
000110 63 07 b1 bc ea e2 89 3b 40 58 9d bc 9b 3c 2e 3c
       -0.021609968 0.0042079585 -0.01920712 0.010634567
000120 59 d8 14 3d 55 b5 0d bd 41 fe 64 bc 3c 4e 03 3d
       0.036339138 -0.03459676 -0.0139766345 0.032057032
000130 fd ec 33 bb 5a 48 96 3c 79 07 73 3c 12 bd bf 3c
       -0.0027454488 0.018345047 0.014833325 0.023405585
000140 84 c4 f8 3c d9 2e 97 bc 33 e7 a4 bb 13 57 2e 3d
       0.030367143 -0.018454956 -0.005032444 0.04256351
000150 50 43 4e bc 17 f5 96 bb 18 97 cc 3c 67 ae 19 3c
       -0.012589291 -0.0046068537 0.02497439 0.00937996
000160 9b 6c be bc 07 4a 9f 3c 75 e0 17 3d 9f 3d bb 3c
       -0.023245146 0.019444479 0.037079293 0.022856532
000170 f8 38 0a bc a5 5c 5c bc 15 a8 1e bc 62 30 94 3c
       -0.008436434 -0.013449823 -0.009683629 0.018089477
000180 60 44 60 bb a9 aa bd bc aa a7 9d 3c a4 11 a1 bc
       -0.0034220442 -0.023152666 0.019244988 -0.019661732
000190 6b e6 88 3c 0f 5f ba ba 97 a3 60 3c 7b 33 b2 3c
       0.016711434 -0.0014219003 0.013710878 0.021753063
0001a0 af a4 23 3c 08 4d 9a bc 16 c1 a9 3c 7d 99 99 3c
       0.009987994 -0.01883556 0.020721953 0.018749947
0001b0 ce f0 bf bc ed 01 1c 3c f4 9d e6 b9 4c 7b fd ba
       -0.023430254 0.0095219435 -0.00043986703 -0.0019339113
0001c0 e8 31 f7 3c 2c 93 bc bc 42 6d 3e 3b bd 43 ab bc
       0.030175164 -0.023019396 0.0029056822 -0.020906324
0001d0 3a 37 cf bc d9 66 f7 3c d6 ec 61 bc 4a 05 a9 3b
       -0.025294889 0.030200409 -0.013789376 0.005158101
0001e0 b8 64 98 3c fb 7d 1d 3d 0a a0 1a 3d 62 e8 aa 3a
       0.018602714 0.038450222 0.03775028 0.0013039226
0001f0 53 b2 49 3c 8c 03 ec bb 21 c2 b0 3c 89 1a 16 3d
       0.012310582 -0.0072025713 0.021576943 0.0366464

fc2.weight f4 [64, 128]
000000 97 ad 51 bd 0a 64 79 bd 51 28 54 bd bb a7 42 bd
       -0.05119094 -0.06088642 -0.05179626 -0.04752324
000010 05 d1 16 bd d1 6e 15 3d 08 79 4b 3c 20 5a a5 bd
       -0.03682043 0.036482636 0.012418993 -0.080738306
000020 cd 6a b0 bd ea 41 7c bd e6 f9 90 bd 7f ad 9d 3b
       -0.08614121 -0.061586298 -0.07078914 0.004811942
000030 26 93 48 bd 54 e5 51 bd 3f be 37 3d 9b 7b 14 3a
       -0.048968457 -0.051244095 0.044859167 0.00056641706
000040 d5 39 5d 3c 22 f6 1a bd a5 a9 83 bd 19 53 15 3d
       0.013502558 -0.037832387 -0.064288415 0.0364562
000050 5d b4 7a 3d 7f aa 74 3c 59 12 91 bd 9b 34 4b bd
       0.061207164 0.014933228 -0.07083578 -0.049610715
000060 64 93 6f bc f1 39 ea 3c 19 d6 06 bd e6 31 9f bd
       -0.014622543 0.028592082 -0.032919023 -0.07773189
000070 36 43 00 3d 8d fe 54 3d 8f bb 3b 3d be 81 a8 bd
       0.031314097 0.05200057 0.045833167 -0.08227871
000080 f6 7d b3 3c ec 81 df 3c 51 5c 9f bd 8a 37 48 bd
       0.021910649 0.027283631 -0.0778128 -0.04888109
000090 7a 14 8e bd 58 7b a0 bc 1a 1d 4a bd fd 53 3e 3d
       -0.06937499 -0.019590065 -0.04934416 0.046466816
0000a0 21 cd 31 3d f3 1a 76 bd 61 18 78 3c 62 33 72 3d
       0.043408517 -0.060084295 0.015142531 0.059131034
0000b0 d7 7f 4b 3d 60 2d 71 bd 79 b8 3f 3d e5 ed 4b bd
       0.049682464 -0.058881164 0.046806786 -0.04978742
0000c0 83 86 2c 3d 3d 06 d5 bc 16 e1 13 3c 10 c7 9b bc
       0.042120468 -0.026003951 0.009025833 -0.019015819
0000d0 f0 f4 d8 bc 69 cd 80 3d 39 d5 5d bd d6 03 a0 bc
       -0.026483983 0.06289179 -0.054158423 -0.01953308
0000e0 0f 5e 39 bd cd 3f 27 bc 56 de 39 bd 46 02 29 3c
       -0.045255717 -0.010208082 -0.04537805 0.010315483
0000f0 32 72 fa 3c da 0a 3b bd d4 eb 75 bd c0 a7 5d 3d
       0.03057203 -0.045664646 -0.060039356 0.054115057
000100 45 09 f8 bc 33 7d 29 bb d6 be 90 3d 16 52 2b 3d
       -0.030277858 -0.0025861978 0.07067649 0.04182633
000110 76 c6 a9 3d 44 db 40 bd 75 c9 a2 bc a7 79 7a 3d
       0.082898065 -0.047084108 -0.019871453 0.061151173
000120 3d d3 95 3b 8a 25 6e 3d 6f 86 83 3d a0 7a 12 bd
       0.0045723007 0.05814127 0.064221255 -0.035761476
000130 51 38 87 3d 37 1c b7 bd 23 b1 44 3d 84 c5 9b 3d
       0.066025384 -0.089409284 0.048020493 0.076060325
000140 fc d1 41 3d a3 da d1 3c 21 87 85 3d 8f e3 0f bd
       0.047319397 0.02561695 0.065199144 -0.035129126
000150 1c e2 76 3d d4 95 93 3d a7 4f d3 bb 36 d6 5c bd
       0.06027423 0.07206312 -0.0064487043 -0.053915225
000160 8b 18 17 bd b7 aa 60 3d 36 15 8b bd ce 32 81 bd
       -0.03688864 0.054850306 -0.06791155 -0.06308518
000170 b1 9f ab 3d 8d 0f 51 bd 50 c7 aa 3c 0a a0 a6 bd
       0.08380068 -0.05104022 0.020846993 -0.08135994
000180 08 0a 8a 3d e5 12 af 3c 63 ac a6 bd dc 0e ab bc
       0.067401946 0.021371314 -0.08138349 -0.020881109
000190 4b db c6 bc 6a e9 a8 bd 7c 00 68 bd 35 e3 aa 3c
       -0.024274489 -0.08247645 -0.056641087 0.020860294
0001a0 b1 6e de bc 13 95 62 3b 87 c7 67 3c bd 2a c0 3c
       -0.027152391 0.0034573718 0.014146692 0.02345788
0001b0 ae 0f 78 3b ce 8a eb bb 81 a2 bd bb 6f b0 ba b9
       0.0037851143 -0.0071881777 -0.0057871942 -0.00035608138
0001c0 79 b5 7c bd 03 46 90 3d 38 75 34 bd 8b e9 2f 3d
       -0.061696503 0.07044604 -0.0440571 0.042947333
0001d0 38 f3 6e bd 32 99 66 3d cf 81 8c 3d 74 33 0d 3c
       -0.05833742 0.056298442 0.068606965 0.008618224
0001e0 2b 0e 4e 3d 36 5b e2 bc e9 da 83 bc e0 94 82 bd
       0.05030648 -0.027631383 -0.016095595 -0.06376052
0001f0 97 c7 a2 3c 1d 3b 46 3d 4e 67 94 3d be fb 63 3d
       0.019870562 0.04839622 0.07246266 0.055660002
000200 55 1a 11 bd de d9 11 3d 58 06 e3 3c 85 70 3f bd
       -0.035425503 0.035608165 0.027712986 -0.046738166
000210 cf 2f 0b bd 16 3a b2 3d 8a 13 a5 3d 43 a2 9c 3c
       -0.03398114 0.08702485 0.080603674 0.019120341
000220 44 22 a0 3d 99 e9 22 3d 04 d1 88 bd 55 b9 16 bd
       0.07819036 0.039773557 -0.066804916 -0.03679784
000230 90 52 9e bd 5e 93 8b 3d 7b f7 cf bc b7 a9 ff bc
       -0.07730591 0.068152174 -0.025386563 -0.031208856
000240 a8 80 d7 3c 3e 3d 47 3d b0 c0 85 bd 51 73 b6 3d
       0.026306465 0.04864239 -0.06530893 0.089087136
000250 8b a9 1d bd 67 56 6d 3d 56 b0 80 3d 69 93 8c 3d
       -0.038491767 0.057943728 0.062836334 0.06864054
000260 2f 96 4c 3c 0b a6 4c bd b7 5b ab 3c 68 9b 81 bd
       0.012486978 -0.04996304 0.020917756 -0.063284695
000270 53 06 12 3d be 6c 9d 3c 17 ee 9c bc 4a b8 21 3b
       0.035650562 0.019216891 -0.019156499 0.0024676495
000280 d6 7d 85 3d af f2 bc 3d 8c 77 1f bc 4e 1b 3c bd
       0.06518142 0.09225976 -0.009733092 -0.045924477
000290 c7 92 24 3d 0d ad 38 3d 70 61 4a bd 4b a2 88 3d
       0.04017904 0.04508691 -0.04940933 0.0667158
0002a0 1a 94 80 bd 4f af 77 3d 72 ef 99 3c aa 49 c0 3d
       -0.06278248 0.06046992 0.018790934 0.0938905
0002b0 5b bb a1 3d 8e 4d 34 bd c8 d8 85 bc db eb 67 3d
       0.07897063 -0.044019274 -0.01633872 0.056621414
0002c0 84 20 b0 3a bd e7 7b 3d bc a2 83 3d 76 eb 9c bc
       0.0013437425 0.0615003 0.064275235 -0.019155245
0002d0 b6 24 40 3a 37 e2 32 bd dc 4b 58 bc d5 9b 46 3a
       0.0007329689 -0.043672767 -0.01320168 0.00075763214
0002e0 25 5a 86 bd f0 07 42 3d c9 da 64 3d ed 71 10 bd
       -0.065601625 0.04737085 0.055872712 -0.035264898
0002f0 ca 10 3a bd cd fd 04 3d e0 a7 b1 bc 94 44 81 3d
       -0.045426168 0.032468606 -0.021686494 0.06311908
000300 72 b7 84 bd 34 02 7a bd f6 a8 e8 bc 5b 61 77 bd
       -0.06480302 -0.061037257 -0.02840088 -0.06039558
000310 f9 15 af 3d 38 cd a8 bd 56 ec 28 bd 6f a2 80 bd
       0.08549113 -0.08242267 -0.041241013 -0.06280982
000320 b0 c3 e6 3c 09 8b 27 3d 2a 5b bb bc 2f fd 6f bd
       0.028169483 0.04090408 -0.022870619 -0.058591064
000330 e4 65 8e bd de 65 2e bd 93 fa 82 bc 9c ca 9c 3d
       -0.06953028 -0.042577617 -0.015988624 0.07655832
000340 8e c5 6f bd 5a 43 1b 3d 80 ad ca bc dc d4 e3 3c
       -0.058538012 0.03790603 -0.024740934 0.02781146
000350 18 74 53 bd 29 8c 26 3a 81 28 36 bd 4d fa 56 bd
       -0.051624388 0.0006353283 -0.04447222 -0.0524848
000360 07 f0 06 3d 78 93 b9 3d cc 59 bb 3d 07 05 cb bc
       0.03294375 0.090613306 0.09147987 -0.02478267
000370 12 00 a9 bd 7b ba 49 3d fa 24 86 3d 6e 03 9d bd
       -0.082519665 0.049250107 0.065500215 -0.0766667
000380 ae 2e 74 bd 9c 45 b6 3d 2d d7 2e bd 7d f5 b8 3d
       -0.05961483 0.08899996 -0.042685676 0.09031198
000390 cb 37 a2 bd 25 3d 59 3d 4c 96 9e bd 7e e5 83 bd
       -0.07920798 0.053036828 -0.077435106 -0.064402565
0003a0 40 d4 25 bd 79 14 07 3d 87 cc 8d 3b b1 30 d6 3c
       -0.04048562 0.03297851 0.00432736 0.026146265
0003b0 c3 a0 86 bb a1 bb 04 3d 3c f3 a5 3c 59 77 53 bd
       -0.0041085198 0.0324055 0.020257585 -0.05162749
0003c0 a8 75 3b 3d aa 77 c1 bc 6c 5c 10 bd 26 b5 17 bd
       0.045766503 -0.02361663 -0.03524439 -0.03703799
0003d0 54 d4 9d 3d f9 93 89 bd 2a 30 54 bd a9 4e bc bc
       0.07706514 -0.06717677 -0.051803745 -0.022986727
0003e0 fc 8c 96 3d 20 b7 19 3d 3c 79 c4 3d 3b 7e 88 3d
       0.073511094 0.037528157 0.09593436 0.066647016
0003f0 26 0d 0a 3d 76 27 43 bd 35 35 05 bd ca b1 31 bd
       0.033703946 -0.047645055 -0.032521445 -0.043382443

fc2.bias f4 [64]
000000 b7 ad a1 3c 40 1e 1f 3d 52 a8 72 bd 25 86 71 bd
       0.019736154 0.038847208 -0.059242554 -0.05896582
000010 57 0c 17 bd bc e3 e4 bc 55 33 07 bd f1 d0 33 bc
       -0.036877003 -0.027940623 -0.03300794 -0.0109751085
000020 03 d3 75 3d cc 0f 38 3d d6 df 04 bc 10 fe 6f bd
       0.06001569 0.04493694 -0.008110007 -0.058591902
000030 c8 a9 92 3d ff 39 ae 3d a0 aa 04 bd 7a 3d 50 bc
       0.071612895 0.085071556 -0.032389283 -0.01270997
000040 ab bb b6 bb d2 81 8c ba 66 0c 7e 3d 64 53 4d 3d
       -0.005576571 -0.0010719842 0.062023543 0.050128356
000050 cf 76 e4 3b 19 bc 83 3d 4b a3 28 3d 70 29 dd bb
       0.006972171 0.06432361 0.041171353 -0.0067493245
000060 16 e5 f3 3b 18 3e ab bd f9 c1 75 bd 32 3e 01 3c
       0.0074430807 -0.08361453 -0.05999944 0.007888364
000070 d3 ab 02 bd 1b 33 62 3d a0 46 6b bd ed aa a6 3b
       -0.031902146 0.05522452 -0.0574404 0.005086294
000080 b5 16 5a bc c8 aa 0e 3b fc 74 21 3d 36 d7 16 bd
       -0.013311078 0.0021769274 0.039418206 -0.036826335
000090 e7 33 76 bd bb 7a b2 3c a2 4a 82 bd 50 cf 56 bd
       -0.06010809 0.021787038 -0.06361891 -0.052443802
0000a0 10 27 f4 bc 92 c6 6f bc b0 34 5c bd 0f 71 49 3c
       -0.029803783 -0.014634745 -0.053761184 0.012295022
0000b0 cc c3 7c 3c fe 91 ef 3b bc 8a 6a bd 8d 08 44 bd
       0.015427541 0.007311105 -0.057261214 -0.047859717
0000c0 5d af de bb 25 c6 d9 3c 9d 7b 42 3d f9 97 40 3d
       -0.0067958073 0.02658374 0.047481168 0.047019932
0000d0 3a 8a af 3b ad cd a8 3d bb b3 6c bd 2b 69 8c 3d
       0.005357054 0.082423545 -0.05778859 0.06855997
0000e0 0b 8a 9b bd cd 71 31 3d 97 0a 9f 3c b4 6a 09 bd
       -0.07594689 0.04332142 0.01941423 -0.033549026
0000f0 59 0f de ba 3b b4 9e 3d 32 4e 68 3c 86 2c a0 3d
       -0.001694183 0.0774922 0.014178799 0.07820992

action_head.weight f4 [100, 64]
000000 de 90 80 bd 8f aa e5 3d 9f 9a 8d bd 21 9b 35 3d
       -0.06277631 0.11214172 -0.06914257 0.044337396
000010 d7 a0 6d bb f9 2d 39 bd d5 43 9a 3d 21 c9 c7 bd
       -0.0036259198 -0.04520986 0.07532469 -0.09755159
000020 23 5b fa bc 3a be c8 3d 4d b5 ff bc c7 ad 90 3d
       -0.030561035 0.09801908 -0.03121438 0.070643954
000030 5d c9 f1 bd f8 8f 3d bc cb 4f 0b bd 76 3f b8 3d
       -0.11805985 -0.011569969 -0.034011643 0.08996479
000040 57 3a da 3b 8a 54 d7 3b f6 26 61 bd 1f f7 dd bd
       0.0066597867 0.006571357 -0.054968797 -0.1083815
000050 d1 73 9f bd 60 22 2a bd 5f 80 d2 bc 02 34 df 3d
       -0.07785762 -0.04153669 -0.025695978 0.108985916
000060 20 b3 ad 3b dc 4e ab bd 06 92 09 3d 79 06 62 3c
       0.0053008944 -0.083646506 0.033586524 0.0137954885
000070 67 6f 6b 3d b4 49 e2 3d 7e 57 ae 3d 94 e0 d6 bd
       0.05747929 0.11049214 0.085127816 -0.10492054
000080 a1 bb f8 3d 6b 40 87 bd 5f a7 d0 3d f0 57 03 3d
       0.121451624 -0.066040836 0.101881735 0.032066286
000090 db b1 ab bd ff c1 30 3d 94 37 ec bc 51 ab 58 3d
       -0.083835326 0.04315376 -0.028835095 0.052897755
0000a0 77 ee 56 3d 14 75 89 bd fe 29 ad 3c 7b 7b ca 3c
       0.05247351 -0.06711784 0.021138187 0.024717083
0000b0 b9 0f 0f 3d 81 ff d4 3d 10 3d 4e bc 31 9c 3a 3c
       0.034927104 0.10400296 -0.012587801 0.011389778
0000c0 e8 38 ad 3d 5e a9 8d bb 3d 41 90 bb 83 00 99 3d
       0.0845812 -0.0043231687 -0.0044023083 0.07470801
0000d0 ba 50 e2 bd 8d be a0 bd 51 83 0c 3c ed da 28 bc
       -0.110505536 -0.07848845 0.00857623 -0.010306102
0000e0 14 1b b8 bd 71 d2 c5 bd f4 39 5a 3d a1 d2 55 bd
       -0.0898954 -0.09659279 0.053277925 -0.052202825
0000f0 52 43 0e 3d 01 76 81 bd 97 73 08 bd e8 d3 61 bd
       0.03473217 -0.063213356 -0.03331336 -0.05513373
000100 8b 32 c8 bc 53 97 8e bd e3 d9 a8 3d 1d 13 28 bd
       -0.024438163 -0.069624566 0.082446836 -0.041033853
000110 57 c9 dd 3d 07 cc 10 bd a3 5e e7 3d 41 96 66 bd
       0.10829418 -0.035350826 0.112973474 -0.056295637
000120 59 46 bc 3d fb fa a9 bb 92 89 aa 3c 96 a5 d0 3d
       0.09193105 -0.00518739 0.020817552 0.10187833
000130 ea b6 c0 3d 9a 83 9d bd f8 02 22 3d c4 50 98 3d
       0.09409888 -0.07691117 0.039553612 0.0743728
000140 53 88 8b bc 7b 1c fc 3d 60 99 a2 3d f9 fd 0a 3c
       -0.017032778 0.1231012 0.0793941 0.008483403
000150 3b b1 a2 3d 48 21 4c 3d 3f 96 1f bd 41 0f 58 bc
       0.0794396 0.049836427 -0.038961645 -0.013187231
000160 c6 76 f6 3d 85 f7 88 3d 1b c6 14 bd 87 21 df bd
       0.12034373 0.066878356 -0.03632174 -0.10895067
000170 db 8a e5 3d 83 d5 b0 3d 98 65 ca bd 56 5b b2 3d
       0.11208125 0.08634474 -0.09882659 0.08708827
000180 1b b9 db 3c 5e 10 01 3e 2e f2 28 3d 00 c9 9e 3c
       0.026821664 0.126039 0.041246586 0.019382954
000190 2d 61 33 3d a9 a3 ba 3d 16 96 bd 3c 82 ab bf bd
       0.043793846 0.09113247 0.023142856 -0.093588844
0001a0 ac f7 4d bd c4 6a 59 3d 88 0d 98 3d 42 d1 9d bd
       -0.050285026 0.053080335 0.07424456 -0.077059284
0001b0 8b e6 78 bd ec 33 f8 3d 54 29 36 bd c5 ce 64 bc
       -0.060766738 0.12119278 -0.044473007 -0.013965313
0001c0 59 99 ba bd 35 5d 04 3c 7b 19 96 bd bc dc 8c bc
       -0.0911128 0.008078863 -0.07329079 -0.017195098
0001d0 e5 ee 63 bd 65 2c 56 3d 7f 83 32 3d 76 9e 98 bd
       -0.05564775 0.05228843 0.043582436 -0.07452099
0001e0 b8 b2 3c 3d 84 06 13 3d 99 f0 72 3b e2 64 7e bd
       0.046068877 0.035894886 0.0037069677 -0.062107928
0001f0 6c c1 91 3d 3b 5a 79 ba ba 8b a3 bd fb cb 82 bd
       0.071169704 -0.00095120416 -0.07985635 -0.063865624
000200 d4 58 2a bd 62 1c be 3d 05 1b e2 3b 6d 9e ca 3d
       -0.04158862 0.09282757 0.0069001936 0.098934986
000210 92 fb 3f bc da 8d df bd 1b 4b 93 bd f6 1b 0d bd
       -0.011717694 -0.10915728 -0.071920596 -0.034450494
000220 7c d6 d4 3d 24 4e 2e 3d 2f db f1 3b 03 bb e8 3d
       0.10392472 0.04255499 0.007380865 0.11363795
000230 d1 2f ce 3d 2b ac 3d 3d 80 f7 2b bd 1f 09 ad 3c
       0.10067714 0.04630677 -0.04198408 0.021122513
000240 3d 2d f6 bd 5e 27 cc bd ec ce df 3d fc a5 e8 bd
       -0.12020347 -0.09968446 0.10928139 -0.11359784
000250 fc 04 e0 3d fe 54 0e 3d b6 1f 43 bd 65 d1 d5 bd
       0.10938451 0.034749024 -0.047637664 -0.104403295
000260 f4 a5 dc bd fd 3c 45 bc 82 f7 b7 3d 6a 5a e2 3d
       -0.107738405 -0.0120384665 0.08982755 0.11052401
000270 23 7e ef bd 62 75 eb bd 3b cb 64 bc 85 e7 3d 3d
       -0.116939805 -0.11496998 -0.01396447 0.046363372
000280 96 57 c2 3d 37 ad 92 3d 4d 0f e1 3c 70 39 ab bd
       0.09489362 0.07161944 0.027473116 -0.08360565
000290 f3 26 d3 3d 62 44 c8 bd 7b d3 dc bd 1e b9 0c bd
       0.10310163 -0.09778668 -0.10782524 -0.03435623
0002a0 f5 b2 f0 3d c2 70 93 bd 08 00 8b 3d 4d be cc 3d
       0.11752883 -0.07199241 0.06787115 0.099972345
0002b0 0d 85 de bc 88 ae d7 bd a6 ae b6 3d f4 b9 7d bd
       -0.027163053 -0.10531336 0.0892003 -0.061944917
0002c0 7d 36 d0 bd 72 b9 b2 bd f5 63 2e 3d 49 46 42 3d
       -0.10166643 -0.08726777 0.042575795 0.04743031
0002d0 f1 2a 9e bd f1 7e b2 bd f0 d0 35 bc be 53 1b bd
       -0.07723034 -0.087156184 -0.011097178 -0.03792166
0002e0 27 e0 a1 bd 2a 30 84 bd 0a a0 0c 3d f9 dd 9c bd
       -0.07904082 -0.06454499 0.034332313 -0.076595254
0002f0 6d fa d4 3d 53 20 7b 3c 4a e1 84 bd ae dd 36 3d
       0.103993274 0.015327531 -0.06488283 0.044645004
000300 20 82 99 3d f0 7d a6 3c c4 de 35 bc d7 ed f5 3c
       0.074955225 0.020323724 -0.011100475 0.030020637
000310 d3 52 68 bd a4 51 94 bd 69 e8 49 bd d5 d9 36 bd
       -0.056719612 -0.07242134 -0.04929391 -0.044641335
000320 a3 93 aa bc 09 bc cf 3d 32 09 d4 3c 01 29 32 bc
       -0.020822352 0.10143287 0.02588329 -0.010874034
000330 8f 4b f4 bd 2b 54 ec 3d 25 d1 51 3d 77 ed 8a 3c
       -0.11928474 0.11539491 0.051224846 0.016958935
000340 73 99 f7 3c 87 85 61 3d 67 27 b7 3d 23 8c 42 bd
       0.030224537 0.055058982 0.08943062 -0.047496926
000350 7f 48 73 3d 11 a1 34 3a 48 51 d8 bd a2 0b 00 bc
       0.05939531 0.0006890456 -0.10562378 -0.0078152735
000360 ea 88 90 3d a3 eb 24 bc 0c 90 b0 bd 06 94 05 3d
       0.07057364 -0.010065946 -0.08621225 0.03261187
000370 06 a3 ee 3c b8 5a 07 bd a6 f6 2b 3d a6 77 8d 3d
       0.02913047 -0.0330455 0.04198327 0.06907587
000380 b4 4a 4d bd 26 92 81 3d c7 f6 cd 3b 40 f9 a5 3b
       -0.05012007 0.06326704 0.0062855217 0.0050651133
000390 0f 64 50 bd 11 3a c2 3d 81 bb a4 bc b6 09 ef 3d
       -0.050876673 0.094837315 -0.02010894 0.11671774
0003a0 9e ca c9 3d c0 42 76 bb ef 6f 05 be b0 7a 2e 3d
       0.09853099 -0.0037576407 -0.1303098 0.042597473
0003b0 35 eb 9f 3c db 5e 49 bd c0 81 b5 3c 47 04 4a 3d
       0.019521335 -0.049162727 0.022156596 0.049320485
0003c0 6f 6b 25 bd 75 c2 c7 bd a8 5d f2 bd 83 69 bf bd
       -0.04038566 -0.097538866 -0.1183427 -0.09346297
0003d0 d6 02 d5 3d fd 16 6f bc 22 97 87 bc d5 88 76 bd
       0.104009315 -0.014592883 -0.016551558 -0.060189087
0003e0 a9 1d a1 bc 8b 2c 90 bd 24 d7 b0 3c f3 f8 25 bd
       -0.019667463 -0.07039746 0.021586962 -0.04052062
0003f0 0a 5a 81 bc b3 96 bc 3c e6 ac e1 bb 64 5d c3 bd
       -0.015790004 0.023021078 -0.006887066 -0.09539297

action_head.bias f4 [100]
000000 89 d5 15 3d af 51 de bc 46 2c 79 3d 5a 89 a0 bd
       0.036580596 -0.02713856 0.060833238 -0.07838698
000010 c9 4c 83 bd 05 f3 a8 3d 97 7f a6 3d 4a 15 f4 3d
       -0.0641113 0.08249477 0.081298046 0.11918123
000020 ff 8f 22 bd 05 90 f3 bd 63 ef d1 bd bf 2a 5e 3d
       -0.039688107 -0.11892704 -0.102507375 0.054239985
000030 32 cd bf bd 6d cb c2 3d 4e dd 98 bd 0e 99 d7 3d
       -0.0936531 0.09511457 -0.074640855 0.1052724
000040 8f 8d c7 bd e5 40 9d 3d 94 8f b9 3c ea ca 16 bc
       -0.09743797 0.07678393 0.022651471 -0.009203652
000050 e9 a0 87 bd c2 2e 88 bc 5d 7f c4 bd 9e f1 df bd
       -0.06622488 -0.016623858 -0.09594605 -0.10934757
000060 27 59 fa bd 14 92 09 bd eb 31 88 3b f2 92 98 bd
       -0.12224036 -0.033586577 0.0041563413 -0.074499026
000070 da 36 ff bd 49 10 f0 bc fb 99 ce bd 4e 70 8d 3d
       -0.12461634 -0.02930464 -0.10087963 0.06906186
000080 e2 6c c6 bd e3 6b d7 bd f1 f4 ed 3d 1e 26 a9 bd
       -0.096887365 -0.10518625 0.116189845 -0.082592234
000090 71 3b 80 bd 38 4c 35 bd 0e e4 49 bd eb e1 bf bd
       -0.062613375 -0.04426214 -0.049289756 -0.09369262
0000a0 ad fd 3a bc 9e d0 1a 3d 13 84 97 3d 73 35 d0 bc
       -0.01141302 0.03779661 0.07398238 -0.025416112
0000b0 20 d0 88 bc d6 c1 94 bd b6 cb 9e 3d f2 d4 ea bd
       -0.016700804 -0.07263534 0.077536985 -0.11466397
0000c0 43 c2 1a 3d a5 91 9a 3c 57 8f 9e bc 96 9c e7 3d
       0.03778292 0.018868277 -0.01935546 0.11309163
0000d0 0c e9 92 3d b3 e2 cf bd 7d b6 2d 3c 52 9a a3 3d
       0.071733564 -0.10150661 0.010602591 0.07988419
0000e0 df d8 81 bd f4 84 c3 bd cf 24 11 bd 50 ff bf bc
       -0.06340193 -0.09546843 -0.035435494 -0.023437172
0000f0 b7 b5 07 be ef f5 07 be d8 7a b4 3d 86 2c 05 be
       -0.13252912 -0.1327741 0.08812493 -0.13005266
000100 96 7f bc bc 4a 39 43 3d 32 5b b7 3c 38 8c 00 bd
       -0.023010056 0.047662057 0.022382353 -0.031383723
000110 a2 82 04 bc 0b b2 2f 3d 3b f0 df bd 57 43 11 3d
       -0.008087786 0.042894404 -0.10934492 0.03546461
000120 fd 67 d3 bc 27 54 ab bd bb 22 23 bc 50 e0 a7 bd
       -0.025806421 -0.0836566 -0.009957011 -0.08197081
000130 d8 71 b6 3d 06 39 3a bd 64 3b 28 3d 9d c9 c8 3d
       0.08908433 -0.045464538 0.041072264 0.0980408
000140 e6 78 a1 bd 0e 38 fc 3b 69 05 c9 3d c0 a4 8b 3c
       -0.07884388 0.007697112 0.09815485 0.017046332
000150 56 08 9a bc c8 e0 b1 bd 41 1e 9d 3d b3 6b f3 bd
       -0.018802803 -0.08685452 0.07671786 -0.11885776
000160 c2 69 ae bd 37 3c c5 3d 0e 9c ee bd fc dc c6 3d
       -0.085162655 0.09630626 -0.11650859 0.09710118
000170 b3 68 1e 3d a1 2c 9a bd 7c 14 06 3e 8a 97 61 bd
       0.038674068 -0.075280435 0.13093752 -0.05507616
000180 de d3 dd 3d 16 95 40 bc 9a b7 d7 bd 4c fa 70 3d
       0.10831426 -0.011754295 -0.10533066 0.05883245

value_head.weight f4 [1, 64]
000000 64 00 94 bd 54 da a9 3c a9 92 ba 3d 6d e2 4f 3c
       -0.07226637 0.02073399 0.091100045 0.012688261
000010 19 7a 24 bd 05 02 18 bc 6e 4e a4 3d b2 ed cb 3d
       -0.040155504 -0.009277825 0.08022772 0.09957446
000020 b5 1c 2b bc 8f 74 13 3d 53 18 81 bb 89 22 ac bd
       -0.010443856 0.03599983 -0.0039396673 -0.084050246
000030 a8 bb b0 3d e6 c2 4a bd 06 b8 da bd 7b e7 e8 3d
       0.086295426 -0.049502276 -0.10679631 0.113722764
000040 53 9a a9 bd ad a6 06 bd ec 1a 6c bd b2 f6 b4 bd
       -0.08281388 -0.0328738 -0.057642862 -0.08836116
000050 3e 6d e6 3d 0e 6a ae bd 75 43 35 3d 46 c5 06 bd
       0.11251305 -0.08516322 0.044253785 -0.03290298
000060 ac 7f 40 3d ce d6 95 ba 53 21 b9 bd 4c dc 92 bd
       0.046996757 -0.0011431815 -0.09039559 -0.071709245
000070 68 b3 39 3d b9 73 00 3e 3c e3 b4 3c d5 9c e6 3d
       0.04533711 0.12544145 0.02208101 0.11260382
000080 b3 f5 ff 3d b4 0e 9d 3d 63 d1 a9 3d 40 f5 c1 3c
       0.12498035 0.0766882 0.082918905 0.023676515
000090 9d 69 d9 3d d7 14 9e bd 61 b1 d8 bd dd 36 60 3d
       0.10615847 -0.07718819 -0.10580707 0.05473982
0000a0 8f 40 7f 3d 40 28 bd bd 0d 31 1d bd f1 99 cc 3d
       0.062317427 -0.09236193 -0.038376857 0.099902995
0000b0 df 08 99 3d 05 e4 ce bd 64 10 07 bd e5 12 8e 3d
       0.07472395 -0.10102085 -0.032974616 0.069371976
0000c0 30 1f 08 3e 7f c1 b0 3d 42 20 fc 3c 77 61 05 3e
       0.13293147 0.086306565 0.0307771 0.13025461
0000d0 11 16 83 3d 68 ce d8 3d aa 40 54 3c 73 1b 70 3d
       0.06400693 0.10586244 0.01295487 0.058619928
0000e0 9c 74 03 3e ae b4 6b 3d 15 62 ce 3c c7 54 52 3d
       0.12837452 0.057545356 0.025193254 0.05135038
0000f0 08 42 cf ba 65 ed f8 3d 11 e9 95 3d 2a 11 54 3c
       -0.0015812526 0.121546544 0.073198445 0.012943545
